iheadwater_hackweek_tutorials/intro_to_pytorch/model_stat_dict_save.pt (torch, 250887 bytes, 10 tensors)

conv1.weight f4 [6, 3, 5, 5]
000000 83 8d 9e bc 5b 02 4c bd a0 8f 17 bd b3 2b b5 3b
       -0.019354587 -0.049806934 -0.037002206 0.005528891
000010 50 f9 8c 3d 79 89 80 3d 80 2c e7 bd b7 99 92 3d
       0.0688349 0.06276221 -0.112877846 0.07158225
000020 22 21 04 3d 22 51 e0 3d bb 17 9c 3d e1 77 d7 bd
       0.03225816 0.10952975 0.07621714 -0.10520912
000030 86 d9 e0 bd 5a 20 64 bd 80 a8 cf 3d 0e 90 9d bc
       -0.10978989 -0.055694915 0.10139561 -0.01923373
000040 f4 68 4a 3d da ca 5b bd 82 0a e8 3d 64 1c 48 bd
       0.049416497 -0.05366025 0.11330129 -0.0488552
000050 1e 58 b1 3d df 38 b3 3a 98 2a 79 bd 78 1c 73 3d
       0.08659385 0.0013673565 -0.060831636 0.05935332
000060 3d 0f 7b bd f0 19 0b 3d 78 92 08 bd c0 69 4f bc
       -0.06129383 0.033960283 -0.03334281 -0.01265949
000070 04 5a e3 bd 50 80 61 bd d3 52 80 3d 2b ef e5 bc
       -0.111011535 -0.05505401 0.062657975 -0.028068146
000080 67 8c eb 3d d0 8f bd 3d e7 2a b1 bb 22 d9 9d bd
       0.11501389 0.09255946 -0.0054067257 -0.077074304
000090 4e 02 90 3d c4 c9 12 3d f8 dd 98 bd 25 9b 99 3d
       0.070316896 0.03583695 -0.07464212 0.075002946
0000a0 ad 91 8f 3d 3b bc d1 3d 09 90 84 bd b2 b4 9b bc
       0.07010207 0.1024098 -0.06472785 -0.01900706
0000b0 76 98 12 bb 06 29 8a 3c 95 78 b3 bd 3b d0 a7 bd
       -0.0022368706 0.016865265 -0.087632336 -0.08194014
0000c0 cc a5 80 3d 29 d0 dd bc ef 07 67 3d b4 b5 d7 3b
       0.06281623 -0.027076798 0.05640405 0.00658294
0000d0 b4 4b 1b 3d dc ff cf 3c 4d f8 2b 3d 39 74 6a 3d
       0.037913993 0.025390558 0.041984845 0.057239745
0000e0 6b 02 db bd 5a 11 6e 3d c6 46 a6 bd a5 6d b2 bd
       -0.106938206 0.058122016 -0.08118968 -0.08712319
0000f0 d1 1a e6 3b 81 31 a1 bc 57 e4 8a 3d 9f f4 88 bd
       0.0070222397 -0.019676926 0.067818336 -0.06687283
000100 94 3a d2 bd ce 1a ac 3d aa 43 8c bc ea 02 85 3d
       -0.10265079 0.0840355 -0.017122108 0.064946964
000110 12 0d 18 3d 1f 55 b1 bd 2e 09 be 3c 96 35 e3 3c
       0.03712184 -0.08658814 0.023197737 0.027735513
000120 ca 56 9e bd b0 68 60 bd 08 45 21 3d 02 70 a9 3c
       -0.077313974 -0.054787338 0.039372474 0.020683292
000130 be 2f 49 bd 93 2c 0f bd 23 97 d8 3d 6e 04 af bc
       -0.049117796 -0.03495462 0.10575702 -0.021364417
000140 b3 53 85 3d a6 cb 4c 3d 34 dd 98 bd a2 1c c9 bd
       0.06510105 0.0499989 -0.07464066 -0.098199144
000150 3e ff e2 3d e3 92 c5 3b 55 19 a2 3d cb 06 c4 3c
       0.1108384 0.006029473 0.07914988 0.02392902
000160 cc 1d 18 3d 8c a4 b0 3d 80 3c e0 3d e7 ec 9c bd
       0.03713779 0.08625135 0.109490395 -0.07662373
000170 98 89 6c 3c 17 7a b0 3d fc 50 ab 3d 81 e9 92 3d
       0.014437102 0.08617037 0.08365056 0.071734436
000180 a0 25 ab bd cb 4a aa bd 9c 04 8f bd e2 ab 6d 3c
       -0.08356786 -0.08315047 -0.06983301 0.014506312
000190 a8 b1 eb 3d 5d 61 95 bd c1 08 7c 3d ee e3 82 bd
       0.115084946 -0.07293961 0.061531786 -0.063911304
0001a0 3f 58 de bd 3c 0c c9 bc 23 41 88 3d 69 8b db 3d
       -0.10856675 -0.024541967 0.06653049 0.1071995
0001b0 6b dd 92 bd 0e 47 cd 3c 2e 0d cc 3d c2 b4 9c 3d
       -0.071711384 0.025058296 0.09963451 0.07651664
0001c0 a7 61 93 3d 62 0d a8 3d 44 94 95 3d 99 54 f4 3c
       0.0719636 0.082056776 0.0730367 0.029825496
0001d0 2c b6 a1 bd 9d 96 c6 bd f3 b8 58 bd ac 4c 5c bc
       -0.07896075 -0.09696696 -0.052910756 -0.013446014
0001e0 dc f3 90 bd 3e 09 2d 3d 84 60 12 3d 2d 31 d6 bc
       -0.070777625 0.042245142 0.035736576 -0.026146496
0001f0 a5 c7 35 3d ed da 18 3d c3 61 90 3d fc 41 9f 3d
       0.04437985 0.03731816 0.070498966 0.077762574
000200 c7 2b 20 bd b4 0c e7 3d bc b6 5a bc 5a fe 81 bb
       -0.03910425 0.1128172 -0.013349231 -0.0039670886
000210 16 36 df bd 3e 34 98 bd 6c 27 8a bd 51 4c 4a bd
       -0.10898988 -0.074318394 -0.067458004 -0.049389187
000220 c9 21 a8 3d 5d 8e 1a bd 14 b8 b0 bd 2e f9 35 3d
       0.08209569 -0.037733424 -0.0862886 0.04442709
000230 da 6d 17 3d e9 2a 99 3d 13 bf 74 bd 8a 17 cd 3c
       0.036969997 0.074788876 -0.059752535 0.025035638
000240 ee 2e 2c bd d5 86 d4 bc 17 75 bc bd 23 8f 57 bd
       -0.042036943 -0.0259432 -0.092020206 -0.05262674
000250 6b d9 10 bd b6 41 4a 3d c1 cf ac 3c 11 a9 e9 3c
       -0.035363596 0.049379073 0.021095159 0.028523
000260 da 08 ec 3d 86 7b e6 3d d6 4a a1 3d 6a f9 70 3b
       0.11525126 0.11254029 0.07875602 0.0036769756
000270 c0 98 a3 bd 40 d0 b8 3d ec 8a ec bc bd f2 18 bc
       -0.07988119 0.090240955 -0.028874837 -0.009335217
000280 c5 ba cb bd 2e d9 ba bc 48 87 98 bd 2a 4e d9 3d
       -0.09947733 -0.022808637 -0.07447678 0.10610612
000290 ba 71 cc bd 8b 55 b8 bd 2f 7b 80 bb 5b bd 7f bd
       -0.09982629 -0.09000691 -0.0039209346 -0.062436443
0002a0 87 3b 29 3d 75 0e 36 bd 5d 25 5e bd 17 4d d6 3b
       0.041316535 -0.04444738 -0.05423485 0.0065399515
0002b0 77 30 ab 3d f7 58 a6 bd 84 1b 5e 3d 1f ed 97 3d
       0.08358853 -0.081224374 0.05422546 0.07418274
0002c0 a2 53 e7 3d 83 85 a5 bd 47 18 e5 3c 94 dc ae bd
       0.112952486 -0.08082106 0.027965678 -0.08538166
0002d0 aa e5 c9 3d 5b 77 37 bd 2c 72 8e 3d 36 4b 61 3b
       0.09858258 -0.04479156 0.0695537 0.0034377105
0002e0 da 57 13 bc e4 75 71 bb 90 cd a0 3c 3a f4 5e 3d
       -0.008993113 -0.003684395 0.01962927 0.05443213
0002f0 50 b5 97 3c c8 47 10 3d d5 b8 d4 bd 57 49 ac 3d
       0.018519074 0.035224706 -0.103868164 0.08412426
000300 43 2e ce 3d 5a 7a c3 3d 37 d0 ae 3d 40 a7 aa bd
       0.100674175 0.09544821 0.085358076 -0.08332682
000310 08 54 2f bd 44 83 d0 3d 7a 1e b4 bd c6 8a d6 3d
       -0.042804748 0.10181287 -0.087948754 0.10475688
000320 20 fe b9 bd 96 94 a6 bd ec 38 67 3d 03 e9 a9 bd
       -0.090816736 -0.08133809 0.05645077 -0.082963966
000330 a0 b6 d8 bc 0a 0a ac 3d b7 50 bb 3d a3 a7 df 3d
       -0.02645427 0.08400352 0.091462545 0.10920646
000340 23 f2 bf bc 07 cf b7 bd ea d7 e8 3d 0b 82 c9 bc
       -0.02343089 -0.08975034 0.11369307 -0.024598142
000350 35 98 42 bd d7 97 e6 3c cc 60 a5 bd 75 6f 9b 3d
       -0.047508437 0.028148575 -0.08075103 0.07589618
000360 20 36 94 3d 02 a5 bb bd 86 3d c2 bd 64 b8 25 bc
       0.07236886 -0.09162332 -0.09484391 -0.010114763
000370 51 a8 46 3d 5c 2b 5b bb 82 d4 6f bd 9e 02 2d 3b
       0.048500363 -0.0033442592 -0.058552273 0.0026399265
000380 16 47 de bd 00 23 a7 bd 8b 6c 9d bd 2a c0 c2 3d
       -0.10853402 -0.081609726 -0.076867186 0.09509309
000390 fa 75 d0 3d 8d a6 20 bd 87 b3 a9 3b 9e ee 52 3d
       0.10178752 -0.039221335 0.005178872 0.051497094
0003a0 88 ad 62 3c af d6 6c bd 7d 63 88 3d bd 5f 91 3d
       0.013835318 -0.057821926 0.06659601 0.07098339
0003b0 9d 49 db bb 98 e4 68 bc 09 e7 d6 3d 60 b7 ce 3d
       -0.006692125 -0.014214657 0.10493285 0.1009357
0003c0 9d 14 86 bd 28 5f e7 3d 83 17 ea 3c 10 16 9d bd
       -0.065469004 0.112974465 0.028575664 -0.07670224
0003d0 1d 74 81 3d 4b 8d b0 bd 3c 7e da 3d 9f 07 98 bd
       0.06320975 -0.086206995 0.106686085 -0.074233286
0003e0 90 c4 05 3d 9f 04 10 3d 43 ff e0 3c dc 24 c4 3d
       0.03265816 0.035160657 0.027465468 0.09577343
0003f0 27 72 44 bd 02 ac 47 bd db ed cc bd 6a 48 9b bb
       -0.047960427 -0.048748024 -0.10006305 -0.004738857

conv1.bias f4 [6]
000000 65 60 e1 3d 85 e6 c8 3d 30 f6 cb 3d 2f 49 c1 3d
       0.11004714 0.09809593 0.09959066 0.09437787
000010 29 7b e2 bd 40 35 1e 3d
       -0.11058647 0.038625002

conv2.weight f4 [16, 6, 5, 5]
000000 16 8a f6 3c 6b 4d 75 bd 9b 8f 07 3d 9b 78 35 bd
       0.030095141 -0.059888285 0.033095937 -0.04430447
000010 6d b9 54 3c fa 8c dd 3c c1 4a 90 3d 59 73 2f bd
       0.012983662 0.027044762 0.07045508 -0.042834613
000020 36 90 83 bd 66 b8 9a 3d cb 62 0c 3d 5d 8d 22 3d
       -0.064239904 0.075547025 0.034273904 0.039685596
000030 5f c5 f0 3c 52 c1 ec bc 1b 2e 49 3d cd fc 91 bd
       0.029390989 -0.028900776 0.049116235 -0.07128296
000040 be 2a 3a 3c c7 2d 17 3d 98 80 64 3d 12 02 27 bd
       0.01136273 0.03690889 0.0557867 -0.04077346
000050 e1 0a 62 bd b7 b6 fa 3c 88 cc 84 bd 19 f8 8a bd
       -0.055186156 0.030604703 -0.06484324 -0.06785602
000060 f7 61 96 bd 1c 2e 22 bd ae 58 7f bc 27 0d 46 bd
       -0.07342904 -0.039594755 -0.015585108 -0.048352387
000070 a2 68 0d bd df 11 94 bd 3f 8f 4d 3d 10 20 99 bc
       -0.034523614 -0.07229971 0.05018544 -0.018692046
000080 f2 02 53 bd 0b 25 ae 3c ac 0f 7a bd 48 1a 6a 3d
       -0.05151648 0.021257898 -0.061050102 0.05715397
000090 76 4e 40 3d db 53 a4 bd ec 41 83 bd 19 85 5c bd
       0.046949826 -0.08023807 -0.06409058 -0.05383787
0000a0 8b 0a 35 bd 9f 08 27 3c eb 5a a5 bd c6 f0 77 bd
       -0.044199508 0.0101949265 -0.08073982 -0.060532354
0000b0 7e bb 18 3d 8a 10 db bc 79 14 05 bd 34 56 8a bd
       0.03728818 -0.026741285 -0.032490227 -0.06754723
0000c0 19 8d 07 3d e4 ee bc 3b 1e 45 01 bd c7 cd 4c bd
       0.033093546 0.0057657827 -0.031560056 -0.050000932
0000d0 42 40 8e 3c bf fe b5 3c 8c 71 14 3d a9 c6 c6 3c
       0.017364625 0.022216199 0.0362411 0.02426465
0000e0 35 11 4c bc ff 71 81 bd c8 e7 54 3d 1c 7a 37 ba
       -0.012455274 -0.06320571 0.051978856 -0.0006999092
0000f0 38 43 5e bd 22 35 90 3d f2 76 3a 3d 05 6c 83 bd
       -0.054263324 0.07041384 0.04552359 -0.064170875
000100 07 06 27 bd ea 9e e3 bc 9d 10 41 bd 7e 2d 1c 3d
       -0.040777232 -0.027785737 -0.047134984 0.038129322
000110 e0 95 6e bd 5e 68 9b 3d fc 3b 0a bd f2 68 45 3d
       -0.0582484 0.07588266 -0.03374861 0.048195787
000120 35 3a 36 3b 19 15 13 bd cf 54 5f 3d cb 2f 7f bd
       0.002780569 -0.035908792 0.05452424 -0.06230144
000130 d0 f1 30 bd d1 57 20 3c 74 a6 84 3d 94 4a 0f bd
       -0.04319936 0.009786562 0.06477061 -0.034983233
000140 25 a6 4b bd 87 82 55 bd 14 72 13 bd 67 0d e7 bc
       -0.049718995 -0.052126434 -0.035997465 -0.028204633
000150 83 cb 9b bc ab 41 3e bd a8 0d d1 3c 06 d5 2d 3a
       -0.01901794 -0.046449345 0.025519207 0.0006631169
000160 b1 82 5a bd 32 fc 3e bd ad a2 8d 3c 9f e1 98 ba
       -0.053347293 -0.04662723 0.017289484 -0.001166392
000170 70 b2 6c 3d 1f cc 4a bc c9 76 87 bd 91 5a 77 bd
       0.05778736 -0.012377768 -0.06614453 -0.060389105
000180 cc 54 c4 bc e6 23 94 bc d6 aa 18 3c 39 02 96 bc
       -0.023966216 -0.018083524 0.009318074 -0.018311607
000190 6d cc f6 3c e7 74 de bc 1c 76 75 3d c9 a1 99 3c
       0.030126775 -0.027155353 0.05992709 0.018753903
0001a0 c3 a2 cd bc 78 06 95 3d 6f c2 aa 3c b1 47 63 bd
       -0.025102025 0.072766244 0.020844666 -0.055488292
0001b0 f7 20 3a bd 70 b2 51 3d 90 be 18 3d 30 90 82 3d
       -0.045441594 0.051195562 0.03729111 0.06375158
0001c0 2a 85 cd bb 81 e9 69 3d 5e 46 26 3d a5 da ce 3c
       -0.006271978 0.057107452 0.04059445 0.025250742
0001d0 e3 ce 9a bc 5c 32 a1 3d 18 5b 87 3c 24 94 ac bc
       -0.01889748 0.078709334 0.01652293 -0.021066733
0001e0 1d 28 98 ba 47 62 a4 3d fa 9f 60 3d 59 45 c6 bb
       -0.0011608634 0.080265574 0.054840066 -0.0060507474
0001f0 6d ef a3 3d f7 dc 12 3d 5a 0f 32 bd 2d 2e 98 bd
       0.08004651 0.03585526 -0.04347167 -0.07430682
000200 b1 5a 42 3d af d2 9c 3d f1 d9 42 bd 65 5c 09 3d
       0.04744977 0.07657372 -0.047571126 0.03353538
000210 79 cc 63 3b 57 04 8f bc b3 df b5 bc f2 14 ba 3c
       0.0034759326 -0.017458124 -0.022201395 0.022715066
000220 1c 75 93 3c b5 e1 61 3d 87 db f4 3c 20 30 18 3d
       0.018000178 0.05514689 0.029889835 0.03715527
000230 52 83 93 3d 0c 47 d0 3c 24 94 46 3c 65 83 f3 bc
       0.07202782 0.025424503 0.01212028 -0.02972574
000240 c6 45 75 3d 79 8f 45 3c 4b 91 57 3d 56 79 a1 3d
       0.059880994 0.012058132 0.052628797 0.07884471
000250 7d 98 95 bc 36 7a 6b 3d d6 d5 87 bc 27 e7 96 3d
       -0.018261189 0.057489596 -0.016581457 0.073683076
000260 ed 9d 83 3d 8f bf ef bc 46 e8 3f 3b 20 0d 12 bd
       0.06426606 -0.029266147 0.0029282733 -0.03565705
000270 1a 43 07 bd db 6c 87 bc 02 ed 11 ba 36 2a e9 bc
       -0.033022977 -0.016531399 -0.0005566628 -0.02846251
000280 9f da 9d bd d4 46 4a bd be a1 e4 bb 5e 86 d5 bc
       -0.07707714 -0.049383953 -0.006977289 -0.026065048
000290 a5 67 78 3d ba ec 87 3d ab 0e 55 3d 01 04 14 3d
       0.060645718 0.06636949 0.05201594 0.03613663
0002a0 92 90 84 bd 6d fb 9d 3d c9 5a 93 bd 9b e5 db bc
       -0.06472887 0.07713971 -0.0719505 -0.026842883
0002b0 c7 61 6b bd f3 86 f0 3c 26 25 8b bd 26 e0 24 bd
       -0.057466295 0.029361224 -0.06794195 -0.040252827
0002c0 30 70 54 bd dc 92 4d bd 15 1f 1c bd fd 60 a4 3d
       -0.051864803 -0.050188884 -0.03811558 0.080263115
0002d0 92 87 da bb 4d e4 cb 3c c1 fe a5 bd 2e ad 94 3d
       -0.0066689933 0.024889136 -0.08105231 0.07259594
0002e0 ca a6 91 bc b8 76 99 bd fc 7a 66 3d 03 dc b4 bc
       -0.017779727 -0.07493347 0.05626963 -0.022077566
0002f0 42 db 97 3d 0d 29 63 bd 49 40 9b bd 3f 3f 7b bd
       0.07414867 -0.05545907 -0.07580621 -0.061339613
000300 f1 de 10 3d 34 06 16 bc 19 ea 9a bd 88 0a 78 3c
       0.035368863 -0.009156752 -0.07564182 0.01513923
000310 7b 8a aa bb d3 a4 f1 3c 15 1f 2a bd 31 c0 6e bd
       -0.0052044964 0.02949754 -0.04153355 -0.058288757
000320 5f f2 63 3d 6b ee 20 bd 30 41 6b 3d ed 94 87 3d
       0.055651065 -0.039289873 0.057435215 0.06620202
000330 fe e1 69 bd 5d 30 1a bd fa 09 21 3c 27 aa 9d bd
       -0.05710029 -0.03764378 0.009829039 -0.076984696
000340 96 6a cd 3c e1 58 0b bd 2c 48 14 bd 65 45 81 bd
       0.025075238 -0.03402031 -0.03620164 -0.06312064
000350 b1 74 1c 3d 78 1e 55 bd 77 a8 85 bd c5 e5 af bc
       0.038197223 -0.05203101 -0.06526273 -0.021471867
000360 85 2e 3a bd c9 91 a2 bd 6f c8 06 3d d1 7b fe bc
       -0.04545452 -0.079379626 0.032905992 -0.0310649
000370 f9 42 6a 3d 7b 6a 6b 3d 4b 4b 55 bd b4 f7 42 bd
       0.057192776 0.057474595 -0.052073758 -0.04759951
000380 e8 6b ed bc ed e5 43 3d 7a 32 38 bb a4 f3 ee bc
       -0.028982118 0.047826696 -0.0028106258 -0.029168911
000390 62 2d 4f 3d bf 94 9e 3d 9d 3f 77 3d ef be 7f bd
       0.05058039 0.07743215 0.0603634 -0.062437948
0003a0 bc ec 8a bc 55 4c 80 bc 69 b4 8e 3d 3f f9 2c bd
       -0.016958587 -0.015661398 0.06968004 -0.042229887
0003b0 0c ad 3f bd c4 70 a7 3a eb 60 9b bc 37 2e fd 3c
       -0.04679589 0.0012774696 -0.018967113 0.030905826
0003c0 14 9b 22 3c 3b ad 47 bd 7a 2f 73 3d 0d 2e 50 3d
       0.009924669 -0.04874919 0.05937145 0.050825167
0003d0 6c 79 92 3c 81 5a 97 bd 8b 28 1d 3d 8b 38 5e 3d
       0.017880164 -0.07390309 0.038368743 0.054253142
0003e0 18 37 ba 3c 3e 46 01 bd db 6f b3 3b 26 7a 00 bd
       0.022731349 -0.03156113 0.0054759807 -0.03136649
0003f0 b6 6d 9d 3d 07 78 a1 3d c3 e4 1b bc 24 02 61 bd
       0.07686941 0.078842215 -0.00951499 -0.054933682

conv2.bias f4 [16]
000000 b4 6a d3 3c fa ce 0c 3d 48 4b 73 3d 4b 05 9e bd
       0.025807716 0.034377076 0.059397966 -0.07715853
000010 7b 2e 0a bd fb 90 b1 3b 2f fe a0 3d d4 86 a1 3d
       -0.033735733 0.0054188943 0.07860982 0.078870445
000020 91 a5 62 bd 82 66 5c bd a6 9e 9e 3d ae b6 c6 bb
       -0.055333678 -0.053808697 0.077451035 -0.0060642576
000030 c8 ba 42 bd df 7f 2b bd 3a 72 42 3d e2 b1 4f 3d
       -0.04754141 -0.041869994 0.047472216 0.05070675

fc1.weight f4 [120, 400]
000000 6b 5d 2c 3d 67 56 26 bc f3 4b 76 bc cd 85 19 bb
       0.042081278 -0.010152436 -0.015032756 -0.0023425699
000010 80 e6 33 3d 92 28 36 bd 03 5d cf 3c f7 9e 0e bd
       0.043920994 -0.044472285 0.025312906 -0.03481957
000020 da ac af bb 83 90 2c 3d 07 33 92 bc 8a f7 a8 bc
       -0.0053611817 0.042130005 -0.017846597 -0.020625848
000030 9a 73 e8 ba 33 6b b4 3c 92 11 25 3d 25 68 43 bd
       -0.0017734647 0.022023773 0.04029996 -0.04770674
000040 02 31 21 3d ca dd 8b bc 73 bd e7 3b 90 2b e2 bc
       0.039353378 -0.01707353 0.0070721447 -0.027608663
000050 2d f7 4e 3c d8 d6 47 bd 70 38 03 bd da 04 ba bc
       0.0126321735 -0.048788875 -0.032036245 -0.022707392
000060 a8 c7 00 3d e7 a1 56 3c 07 ab 10 bd 67 fd ec 3b
       0.031440407 0.013100124 -0.035319354 0.0072323564
000070 bb 0e 47 3d 3d d5 45 bd 65 bf 32 3d fd aa 1f 3d
       0.048598032 -0.048299063 0.04363956 0.038981427
000080 e7 1a 34 3b 7d f3 cf bc 47 4d ba 3c f0 ed c1 3c
       0.0027481855 -0.025384659 0.022741927 0.023673028
000090 1d 52 9f bc d7 f9 e7 bc 6f 52 07 bd aa a5 9b bc
       -0.019448334 -0.028317375 -0.0330376 -0.018999893
0000a0 f3 a2 2a 3c e3 bf af 3c 67 10 83 ba 30 e5 30 3d
       0.010414827 0.021453803 -0.0009999395 0.04318732
0000b0 f3 fe 6a 3c ba 24 70 3c 1d 29 cb bc 07 2b 6f bc
       0.014343011 0.014657194 -0.024799878 -0.014597661
0000c0 d0 98 08 3d 8a 85 d1 3c 8d cb c0 bb 72 70 09 bd
       0.03334886 0.025576372 -0.00588364 -0.0335545
0000d0 00 db 3f bd e7 f2 2b 3b d0 1b 03 bd e7 01 01 bc
       -0.046839714 0.002623731 -0.032008946 -0.007873989
0000e0 4d 70 08 bc 08 e1 3f bd db ad 0d 3d da da 17 bc
       -0.008327556 -0.046845466 0.03458963 -0.009268487
0000f0 0b a2 49 bd 47 ef 3a bd 1f 32 23 bd fd 9c a0 bc
       -0.0492268 -0.04563835 -0.03984272 -0.019606108
000100 80 77 4b bb ea e9 a8 3c 00 8b db ba 57 f8 43 bd
       -0.003104657 0.020619351 -0.0016749799 -0.047844257
000110 f7 6b 23 bd c7 7c d1 bc fd cc 20 3d e7 91 15 bb
       -0.039897885 -0.025572194 0.039257992 -0.002282256
000120 b7 3e 3d bd 10 82 ab bc 00 61 15 bd b3 5b e0 3b
       -0.046202388 -0.020936042 -0.03646946 0.006846869
000130 e7 8b 8b bb 53 54 01 bc c2 df 1e 3d 80 d0 f7 bc
       -0.004258621 -0.00789364 0.03878761 -0.030250788
000140 00 16 ad 3b 7a b7 94 bc 1a 30 0f 3c ef 73 22 bd
       0.0052821636 -0.018153895 0.008739496 -0.039661344
000150 b3 9f 9e bc 6d 89 c1 3c dd 9b 08 bd 5a 1b bb bc
       -0.01936326 0.0236251 -0.033351768 -0.02284019
000160 b3 1f d8 bb fa 13 20 bd 4f f0 03 bd da ca 84 bc
       -0.0065955757 -0.03908155 -0.032211598 -0.016210008
000170 27 4a c0 bb 73 22 30 bc 4d 0a 39 3b b3 a5 3b bd
       -0.0058682146 -0.010750401 0.00282349 -0.04581232
000180 da 86 04 bc 78 d9 33 bd 57 68 d7 3c 3b 77 3a 3d
       -0.008088792 -0.043908566 0.02629487 0.045523863
000190 c8 c3 21 bd 8d 7b 13 bd ea 96 46 3d 17 1b 1f 3d
       -0.039493352 -0.0360065 0.048483767 0.038844194
0001a0 00 67 bc 3c 87 5e 01 bd 10 46 80 3c 67 0f d0 ba
       0.022998333 -0.03158429 0.015658408 -0.0015873731
0001b0 93 31 1a 3d 2d d1 fe 3c 33 65 b9 bb 27 ac 9f 3c
       0.037644934 0.031105602 -0.005657816 0.019491268
0001c0 57 ff 32 bd 9a ea 0c 3c 10 7d f9 bc 88 9c 22 3d
       -0.043700542 0.008600855 -0.030455142 0.03970006
0001d0 a0 b0 14 bd c0 0b 32 bd e8 5e 2e bd 07 e9 69 bc
       -0.036301255 -0.043468237 -0.04257098 -0.014276749
0001e0 33 29 32 3b 67 b3 bb bb 40 1c a8 3c d8 cd 35 bd
       0.0027185201 -0.0057281735 0.020521283 -0.04438576
0001f0 57 b4 f0 bc f3 f2 e2 bb cd 9c d0 ba 07 99 31 bc
       -0.029382868 -0.0069259345 -0.0015915871 -0.010839707
000200 9d 04 bc 3c da 08 d4 3c 80 2f 13 bc b3 be 1f bb
       0.022951419 0.025883127 -0.008983493 -0.002437514
000210 cd b6 ff bb a7 34 a0 3b 60 bb ab bc 33 78 ff bb
       -0.007803774 0.004889089 -0.02096337 -0.0077963113
000220 4a 4b 16 bd 5f 49 2b 3d 23 01 0c 3d 07 27 0b bd
       -0.036692895 0.04181802 0.03418077 -0.033972766
000230 b3 ac 72 3b 83 c3 f0 bc 93 27 25 bc d3 a2 35 bd
       0.0037029206 -0.029390102 -0.010080236 -0.044344734
000240 1a b9 59 bb 90 70 ba bc f3 09 38 bd b2 0b 49 3d
       -0.0033221901 -0.022758752 -0.044931363 0.04908342
000250 4d 0f 51 3c e7 85 0c 3d 80 b4 06 3c 00 d6 28 3b
       0.012759996 0.034307387 0.0082217455 0.002576232
000260 40 15 bb bc 9a 87 a3 3c 43 5a 03 3d 1a e9 3e bb
       -0.022837281 0.01996212 0.032068502 -0.0029130639
000270 17 0c d3 bc 97 1c 24 3d 40 b1 8f bb 70 87 06 bd
       -0.0257626 0.040066328 -0.0043851435 -0.032844007
000280 2d d4 e8 3c c8 46 49 3d dd f3 40 3d 17 5b 28 3d
       0.028421486 0.049139768 0.047107566 0.041102495
000290 5b c8 39 3d 92 c5 4a bd f3 a8 8c 3c 5b 97 31 3d
       0.04535709 -0.049504824 0.017170405 0.043357234
0002a0 82 b3 04 bd c7 2c 59 3c 7a 7e 81 bc e7 29 6d bb
       -0.032397754 0.013255305 -0.015807379 -0.0036188306
0002b0 aa e3 bd 3c 67 c4 72 3b 0d 94 92 bc 07 56 1a bc
       0.023179848 0.0037043334 -0.017892862 -0.009419925
0002c0 27 31 9b 3c 17 39 cf bc cb 1e 08 3d f5 37 3e bd
       0.018944336 -0.025295777 0.03323249 -0.046440084
0002d0 ca d8 0b bd c0 aa 62 3c 33 42 a1 3a 73 d5 e8 3c
       -0.034142293 0.013834655 0.0012303054 0.028422093
0002e0 6d 3a af 3c e7 28 20 3b 9a fe f9 3b e7 a7 15 3d
       0.021390164 0.0024438442 0.007629228 0.036537077
0002f0 4f 93 40 bd bd 2a 8c bc 9f 25 04 3d 3f 16 20 bd
       -0.047015484 -0.017110223 0.03226244 -0.039083716
000300 4a be c3 3c 53 15 08 3d 47 9e 83 3c 67 28 06 bd
       0.023894448 0.03322346 0.016066683 -0.032753374
000310 9a 71 e5 bc b3 67 3d 3c 30 c2 b6 bc c7 0b a1 3c
       -0.028008271 0.011560368 -0.022309393 0.019658936
000320 7a 32 6b 3c 80 58 14 3c e8 68 39 3d dd 82 45 bd
       0.014355296 0.009054303 0.045266062 -0.048220504
000330 02 9c 44 bd 38 74 08 3d 3a 82 89 bc 6d 54 43 bd
       -0.048000343 0.03331396 -0.01678573 -0.047687937
000340 60 d7 88 bc a0 d0 1b 3d 80 ea e6 bb d3 f7 c7 3c
       -0.016704261 0.038040757 -0.0070469975 0.024410164
000350 87 b4 ee 3c a7 20 7b bc e3 a1 d4 3c a0 d1 7c 3c
       0.029138817 -0.015327609 0.0259561 0.015430838
000360 9a e1 02 bd 33 1f 25 bc c0 71 f8 3c 1a 4e 9f 3c
       -0.03195343 -0.010078239 0.030327678 0.019446421
000370 b3 f7 e3 3b 0d 09 c9 bb 92 3a 10 bd c7 11 94 bc
       0.0069570183 -0.006135112 -0.035212107 -0.018074883
000380 8f c6 04 3d 4d 87 31 bb 8a 85 f5 bc 40 80 d9 3b
       0.032415923 -0.0027088702 -0.029970903 0.006637603
000390 83 d1 28 bd 0d 42 ca bb 00 33 06 bb 6f 9f 41 bd
       -0.04121543 -0.0061724246 -0.0020477176 -0.04727119
0003a0 00 b6 09 bd 0d c8 0a bd 95 66 0e bd 6a 01 27 3d
       -0.033620834 -0.03388219 -0.0347658 0.040772833
0003b0 b0 7a 9f 3c 0a da 10 bd 4d 99 ae bc eb 73 16 3d
       0.019467682 -0.03536419 -0.021313334 0.03673164
0003c0 48 cc 32 3d 1a 27 a0 3b 9a eb 2e 3a 78 e6 1b bd
       0.04365185 0.004887474 0.00066726806 -0.03806159
0003d0 cd af f2 3c da 0d 66 bc cd 74 9a 3b ed d0 26 bc
       0.029624844 -0.014041388 0.004713631 -0.010181648
0003e0 e7 b8 8d 3c d3 12 3f 3c 93 d0 3c bc 73 75 03 bc
       0.017300082 0.011662203 -0.011524337 -0.008023608
0003f0 33 7b 1b b9 ad 48 22 bd cd 70 42 bb 28 55 19 bd
       -0.00014827847 -0.03962009 -0.0029669285 -0.037434727

fc1.bias f4 [120]
000000 2a 01 c4 bc c2 43 29 bd 1a 48 e7 3b ed e5 21 3d
       -0.023926336 -0.041324385 0.0070581557 0.039525915
000010 cf 78 04 3d 4a 10 a3 3c 35 6a 0f 3d b5 2a 23 bd
       0.032341775 0.019905228 0.035013396 -0.03983565
000020 b0 cb 48 3d a0 80 7c bc 70 83 3e bd ad 73 be 3c
       0.049022377 -0.015411526 -0.046512067 0.023248518
000030 f3 a1 5b 3c 87 fb 33 bc f2 11 42 bd 00 c2 0d 3a
       0.013405311 -0.010985262 -0.047380395 0.00054076314
000040 17 bc c9 bc 90 3f f9 bc b0 c6 37 3d aa 07 c7 3c
       -0.024625821 -0.030425817 0.044867218 0.024295647
000050 95 7b 2f bd 6d 8a b0 bc 9a 3b c2 bc bb 6e 38 bd
       -0.042842466 -0.021550382 -0.02371006 -0.045027476
000060 fa 2b 1b bd 6a db 4b 3d 67 51 2f 3b 2a a1 28 3d
       -0.037883736 0.049769796 0.00267514 0.041169323
000070 87 65 0c 3c 70 d7 45 3d b7 6f f8 bc 1a 56 64 3c
       0.008569128 0.04830116 -0.030326707 0.013936544
000080 5a 11 c4 bc 40 e2 91 3c 40 c6 1e 3d 8b 06 1b 3d
       -0.023934055 0.01780808 0.038763285 0.037848037
000090 cf 58 03 bd 9a bd f4 ba 00 a1 80 3b cd 1c 01 3b
       -0.032067116 -0.0018672228 0.0039254427 0.0019701004
0000a0 47 2b a6 bc e7 b3 78 3c f7 21 21 bd c7 78 7a bc
       -0.020284308 0.015179611 -0.039339032 -0.015287585
0000b0 2d 4a d4 bc b3 b9 99 bc 57 6a eb bc 63 6f 02 3d
       -0.025914276 -0.018765306 -0.02873723 0.031844508
0000c0 5a 45 30 bc f7 c4 c3 3c 00 04 90 39 b3 b4 35 3b
       -0.010758722 0.023897631 0.000274688 0.0027726113
0000d0 df 9d 3b 3d 9f 0e 02 3d 1d a2 47 3d 47 69 27 bd
       0.045804854 0.031752225 0.048738588 -0.040871885
0000e0 32 a9 4a 3d 8d 4c b0 bc cd 3e 63 ba 9a 66 b8 3b
       0.049477763 -0.021520877 -0.0008668721 0.0056274654
0000f0 2f f4 45 bd 90 50 c2 3c 1d bf e5 bc 25 44 35 3d
       -0.048328575 0.023720056 -0.028045231 0.04425444
000100 ad ea 06 bc 4a cc 11 bd ba a5 12 3d 33 bb be 3a
       -0.008234662 -0.035595216 0.03580258 0.0014551639
000110 fd a4 17 bd 2d a0 09 3c 6d 54 2d bc c7 23 48 bd
       -0.03702258 0.008400005 -0.010579211 -0.048862245
000120 c7 14 36 3c 7d 1f bd bc cd d6 17 bc 0d c5 2c 3d
       0.011113352 -0.023086304 -0.009267521 0.04218011
000130 cd ca 31 3a e2 e1 0e bd 4d 9c 14 3d 5b 36 17 bd
       0.0006782234 -0.034883387 0.036281873 -0.03691707
000140 c7 c1 b9 3c 20 95 38 3c 62 3b 31 3d 63 f6 2d bd
       0.022675408 0.011266023 0.043269522 -0.0424713
000150 10 d4 9b bc a3 dc 87 3c da 33 4c bc 4f b6 11 bd
       -0.019022018 0.0165847 -0.012463534 -0.035574254
000160 cd ea ca 3b 57 6b b9 3c 67 66 d8 3a 4f 26 23 3d
       0.006192541 0.022634191 0.001651001 0.039831456
000170 98 94 28 bd 7f 8d 09 3d d2 9c 40 3d 8d ee ac bc
       -0.041157335 0.033582207 0.047024556 -0.021109844
000180 da 63 ce bb 20 da cf bc 8d 27 41 bd 9a f4 96 3b
       -0.0062985243 -0.025372565 -0.04715686 0.0046067955
000190 60 3f 46 bd a5 a7 41 3d 97 ae 3b 3d 73 76 77 bc
       -0.048400283 0.04727902 0.0458208 -0.015103924
0001a0 8d f2 87 3b f3 51 d0 bc 02 c6 3a 3d 33 f6 84 3a
       0.0041487874 -0.025429701 0.04559899 0.0010144174
0001b0 53 a1 55 3c 40 9d 70 bc 9a 09 3e b9 5d 8e 1c bd
       0.013038951 -0.014685929 -0.00018123389 -0.038221706
0001c0 67 36 c1 bb aa c1 a6 3c 0a 01 ff 3c d5 0e 29 bd
       -0.005896378 0.020356018 0.031128425 -0.04127391
0001d0 4d b8 a2 3c bd a6 c8 3c e7 57 91 bb 57 76 9c 3c
       0.019863272 0.02449357 -0.0044355276 0.019099398

fc2.weight f4 [84, 120]
000000 50 26 9d bd 88 10 09 bd 99 7e 00 bd 8d 14 2d bd
       -0.07673323 -0.03346303 -0.031370733 -0.042255927
000010 fb 2c c9 3b c8 62 25 bd 72 58 98 bd 83 b9 63 bd
       0.0061393953 -0.04037741 -0.074387446 -0.05559684
000020 67 b5 07 3c 9b d0 87 3c 5d 2e a6 3d f2 0d 77 bd
       0.008282996 0.016578963 0.08114312 -0.060316034
000030 c6 8f 44 3d db 69 79 3d f3 f3 1a bd ff 62 ab bc
       0.047988676 0.060891967 -0.037830304 -0.020921228
000040 b7 33 81 bd 51 9b 18 bc 0a ee 61 3b cb 1e aa bd
       -0.06308692 -0.009314374 0.0034474158 -0.083066545
000050 c9 4c a8 3d 15 97 ba bd ef 14 2f bd 12 d9 6c 3c
       0.082177706 -0.09110848 -0.042744573 0.0144560505
000060 25 82 b3 3d b1 62 45 b9 12 0c 37 3d de d4 3d bb
       0.087650575 -0.0001882415 0.044689246 -0.002896599
000070 65 00 85 3c 95 0e 17 bd 21 31 86 bd f0 53 6c 3d
       0.01623554 -0.03687914 -0.06552339 0.057697237
000080 0c 61 79 3d b2 6b 9b 3d d6 30 13 bd ed c6 42 3c
       0.060883567 0.075889006 -0.035935245 0.011888248
000090 c5 52 94 3d f9 4a 78 3d 9f 53 54 3d 99 f5 9b 3b
       0.072423495 0.060618374 0.05183756 0.004759502
0000a0 b8 d4 e8 3c e2 26 a8 3d ed ef b0 3c f8 0d e2 bc
       0.028421745 0.08210541 0.02159878 -0.027594551
0000b0 22 1c bc 3b 4b b4 7e bd c1 ae 98 bd 5c b0 19 bd
       0.0057406584 -0.06218366 -0.07455207 -0.037521705
0000c0 b8 42 e9 bc af 05 77 3d 8c 97 5a bd 9a ee 99 bd
       -0.028474197 0.060308155 -0.053367183 -0.07516213
0000d0 0f be 41 bc 5f 35 26 3d 48 92 6e bd 47 da ba bd
       -0.011825099 0.040578242 -0.058244973 -0.09123664
0000e0 f4 04 7b bd c3 07 6d bc 64 3a 0a 3d ef a6 b2 3d
       -0.06128402 -0.014467183 0.033747092 0.08723246
0000f0 ed b8 38 bd b6 13 ae 3c b5 63 30 ba e1 42 86 bd
       -0.045098234 0.021249633 -0.00067287247 -0.06555725
000100 4e 66 d2 bb b1 8e 85 bd 43 2b 11 3d fd 46 b6 3d
       -0.006420887 -0.06521357 0.03544165 0.08900259
000110 0d 04 b4 bd 3e ac b9 bd 71 6e 40 3c 3d 25 87 3d
       -0.08789835 -0.09066056 0.011745081 0.065988995
000120 8a e5 89 bb 01 d0 93 bd a8 98 03 bd cf 98 a9 bd
       -0.0042082714 -0.07217408 -0.032128006 -0.08281099
000130 7f 3b 94 3b 4c 46 8b 3d 84 b5 8c 3d aa 8c 5f bd
       0.004523694 0.068005174 0.06870559 -0.054577507
000140 99 7a b7 3d da b6 00 3d 33 8e c1 bc f4 4e 74 3d
       0.089589305 0.03142438 -0.023627376 0.059645608
000150 ba 72 8d bd a0 5e f8 bc 8e 3f 9f 3d 61 0c 7d 3c
       -0.06906648 -0.030318558 0.07775794 0.015444846
000160 30 63 1c bd 58 99 90 bd 8c b7 82 bd d2 a7 30 bd
       -0.03818053 -0.07060498 -0.06382665 -0.043128796
000170 56 90 2d bd 29 e6 46 bc 1d 95 13 3d 26 49 89 3d
       -0.042373978 -0.012139835 0.036030877 0.06703405
000180 f8 2d 32 3b fb 43 91 3d dc f3 97 3d e3 7c 1a 3d
       0.0027188044 0.07093044 0.07419559 0.037716758
000190 6a 45 7e 3d 84 b6 c2 bc fb db df 3c 3c c0 13 3d
       0.062077917 -0.02376867 0.027326575 0.036072
0001a0 c3 db c2 bc 35 c6 b0 bd a6 56 92 bd 8a bb 66 bd
       -0.023786431 -0.08631555 -0.07145433 -0.056331195
0001b0 3c f1 10 bc 91 6d 2d bd 9f 51 86 3d d5 8e 54 bd
       -0.008846577 -0.04234082 0.06558537 -0.051894028
0001c0 da 56 99 3d 93 4e 80 3d a7 1b 90 bd f4 88 53 bd
       0.07487269 0.06264987 -0.07036524 -0.05164428
0001d0 32 48 c2 3c 45 09 35 3c 89 df 79 bd 4d ae d0 3a
       0.023716066 0.011049573 -0.061004195 0.0015921086
0001e0 eb 9f 88 bb 36 03 07 bc d7 9d 51 3d f2 6d d0 3c
       -0.0041694543 -0.008240512 0.05117592 0.025443051
0001f0 2e 8e bb bb 27 07 64 3d aa fd 73 3d 3d d4 21 bd
       -0.0057237362 0.055670884 0.059568085 -0.039509047
000200 f4 ac b2 bd 3e b4 7d bd 38 35 29 3d 23 92 53 3c
       -0.087243944 -0.06193947 0.04131052 0.01291326
000210 ff 13 67 3d 75 ff d8 bc 34 a2 ac 3d 32 df cf bc
       0.056415554 -0.026488999 0.08429375 -0.025374983
000220 ec e1 ef bb 9c b4 83 bd 06 9e 9d bd 83 fc b7 3c
       -0.007320633 -0.06430933 -0.07696156 0.022459274
000230 da d4 9b 3d 79 ee b6 bd 84 b1 44 3d 38 59 9e bd
       0.076089576 -0.08932204 0.048020855 -0.07731861
000240 9a a1 77 3d a9 fb 84 bd 76 38 53 3d 1f 12 5e bd
       0.06045685 -0.06493313 0.051567517 -0.0542165
000250 84 e8 24 bd 0c 1d a8 bc a3 79 09 bd c5 8c ab 3d
       -0.040260807 -0.020521663 -0.033563267 0.08376459
000260 8c 54 58 3c a3 9c 9e 3c 01 dc 03 bd f1 b4 86 3d
       0.013203751 0.0193618 -0.032192234 0.065774806
000270 00 5e cf 3a 92 f2 93 bd b9 ed 86 3d dc 8a 8f bd
       0.0015820861 -0.07224001 0.06588311 -0.07008907
000280 77 39 5a 3d bf 35 fb bc 78 3e 35 3d 50 75 82 3c
       0.05327746 -0.030665277 0.044249028 0.01592508
000290 a0 c2 6c 3d 5f 47 a5 3d 03 29 df bc 51 0e e4 3c
       0.057802796 0.080702536 -0.027241236 0.027838858
0002a0 a6 fc 7a 3c 1b 45 a8 bd d8 41 3f 3d 17 01 9d 3c
       0.015319025 -0.08216306 0.046693653 0.019165559
0002b0 4e 0e 1d 3b 30 5d 59 bc 17 77 21 bd 87 59 2f bd
       0.0023964825 -0.013266847 -0.039420214 -0.04280999
0002c0 73 2b 36 3d b9 97 b5 3d d8 ab 39 bd 2f 54 ee bc
       0.04447503 0.088668294 -0.0453299 -0.029092876
0002d0 7f fd 15 bc b3 09 9f bd 6e 0d c5 3b 64 d2 98 bd
       -0.009154676 -0.07765522 0.006013564 -0.07462004
0002e0 e1 b8 91 3c cf aa 86 3d 40 7d 84 3d 47 17 a2 bb
       0.017788352 0.06575548 0.06469202 -0.0049466225
0002f0 4c d1 b8 3d 83 b6 36 3d ee 06 2e bc ed aa 49 3d
       0.09024295 0.04460765 -0.010621769 0.049235273
000300 06 88 47 bd 88 7d 8a bb 1f 69 75 3d 19 d9 92 3c
       -0.048713706 -0.0042263903 0.059914704 0.017925786
000310 31 b2 c9 3c ed 52 93 bd 35 57 5c bd a1 a7 93 bd
       0.024621101 -0.07193551 -0.053794105 -0.07209707
000320 52 63 77 bd a5 30 d0 3c 9d 69 2e 3a 01 6e d1 bb
       -0.060397454 0.02541382 0.0006653311 -0.0063912873
000330 f7 a3 3b bd 8e 9c a0 3d 44 de ae bd e2 94 2e bb
       -0.045810666 0.078423604 -0.085384876 -0.0026639034
000340 dd e6 99 3d d3 54 52 3c c5 5e ac 3d 75 bc 20 bd
       0.07514737 0.0128376065 0.08416513 -0.039242227
000350 e8 f5 03 3d 30 b9 09 3d 4e c3 b6 3d c4 9b a1 bb
       0.032216936 0.033623874 0.0892397 -0.004931899
000360 89 3f a9 bd 12 96 b4 bd 07 81 63 3d f0 73 4d bd
       -0.082640715 -0.08817686 0.055542972 -0.050159395
000370 1e c2 96 bd c0 10 b3 bc e0 75 b0 bb cd 5e 49 3d
       -0.07361244 -0.021858573 -0.0053851455 0.049162675
000380 90 be 9f 3d 64 2b 24 3c d3 fc b2 3b e7 a0 e4 b9
       0.07800019 0.010020111 0.005462268 -0.0004360743
000390 e0 ca 0d 3d a8 a2 3d 3c 21 38 94 3d 90 ba b6 bc
       0.034617305 0.011574425 0.07237268 -0.022305757
0003a0 1a b5 49 bd 66 f2 9e 3c 1d af ed 3c de 08 7a 3c
       -0.049244978 0.019402694 0.029014165 0.015260903
0003b0 8e 88 14 3d b0 95 37 bd f9 66 70 3c 4a f6 2f bd
       0.03626304 -0.044820487 0.014672988 -0.04295949
0003c0 09 8e 12 bc 1d bd 5b bd 5b 5f 04 3d ef 43 b2 bd
       -0.008944997 -0.05364715 0.0323175 -0.087043636
0003d0 56 39 a1 3c 3f f9 ba bc 1a 42 48 bb 6f d4 a5 bd
       0.01968066 -0.022823928 -0.0030556978 -0.08097159
0003e0 34 27 21 bd a3 f6 49 3d ec a4 a7 bd 97 dd 77 3d
       -0.039344028 0.049307477 -0.08185753 0.06051406
0003f0 69 63 42 bd 7c 71 bf bb a1 71 97 ba a8 1f c6 3b
       -0.047458086 -0.005842386 -0.001155425 0.006046254

fc2.bias f4 [84]
000000 71 43 1c 3d 26 fd a1 3d 0e 77 20 3d 90 b0 db bc
       0.038150255 0.07909612 0.03917604 -0.02681759
000010 de e9 96 3d 0b 21 64 3d ef 30 80 3c 9f 92 27 bd
       0.073688254 0.055695575 0.015648333 -0.040911313
000020 ac 57 e9 3c c0 ec b6 bc 71 95 a9 bd 2f 82 d3 bc
       0.028484188 -0.022329688 -0.08280457 -0.025818912
000030 0f cd 63 3d 9e b8 3b bd 44 17 85 3d 45 be a4 ba
       0.05561548 -0.04583036 0.06498578 -0.0012568912
000040 8a b6 a6 bb 78 d6 b1 bd 46 e8 12 bd ec 94 ba bc
       -0.0050876783 -0.08683485 -0.035866044 -0.02277609
000050 16 6a 76 bd 17 e7 7d 3d b6 dc 0e 3b bd f9 b6 bd
       -0.060159765 0.061987963 0.0021799034 -0.089343525
000060 fa 6e 81 3d 96 21 a3 bc 60 d4 1d 3d 9f 3f 3d bd
       0.06319995 -0.019913476 0.038532615 -0.046203252
000070 bd eb b1 bd 9c 70 2f 3d b7 f3 b9 3d ae 61 85 bd
       -0.08687542 0.042832002 0.09079688 -0.065127715
000080 d0 a8 82 bd 99 38 a5 3c 79 24 03 bd 3c 74 43 3c
       -0.06379855 0.02016859 -0.032017205 0.011929568
000090 5c 4a a7 3d 01 9d 03 bd f0 db 5c 3c 85 9e 06 3b
       0.0816848 -0.032132152 0.013480172 0.0020541262
0000a0 2a c0 6a 3d 6b dd 11 3d b8 ba 8a bc 07 5f 97 bd
       0.05731217 0.03561155 -0.016934738 -0.07391172
0000b0 9f 78 f2 bc 98 2f 7d bd 6e 49 54 3d 9b e5 28 3d
       -0.029598532 -0.061812967 0.05182784 0.041234594
0000c0 e3 93 a6 bd aa 1c 30 3d 4b 98 b0 3d 86 51 67 3c
       -0.08133676 0.042996086 0.086227976 0.014118558
0000d0 62 47 1d 3d cd 77 9e bb 92 94 86 3d 58 6d 1c bd
       0.038398154 -0.0048360587 0.06571306 -0.038190216
0000e0 97 be c3 bb bd e6 ec 3c 2a 06 7b 3d 13 95 51 bc
       -0.005973648 0.028918618 0.061285175 -0.01279189
0000f0 b4 4f b3 bd f3 90 c8 bc 9c 1c 42 bd d0 a9 f9 bc
       -0.087554365 -0.02448318 -0.047390565 -0.03047648
000100 03 a9 08 3d 54 0e fc bc c6 bf b1 bd 3f 44 93 bd
       0.033364307 -0.030768551 -0.08679156 -0.07190751
000110 31 df 6a bd de 34 a8 3d 7d 4b 7c 3d 82 2f a5 3d
       -0.05734176 0.082132086 0.06159543 0.08065702
000120 72 6d a5 bd 74 0b 09 3c 8b ff 01 bd 5c 50 27 bd
       -0.08077516 0.008364547 -0.031737845 -0.04084812
000130 2d 3f f5 3c e9 f7 cf bc 65 19 3c 3d ce 19 0f bd
       0.029937351 -0.025386767 0.045922656 -0.03493672
000140 59 90 9f bd 84 47 9e bd fd 74 89 bd 1a 56 60 3d
       -0.07791204 -0.07728484 -0.06711767 0.054769613

fc3.weight f4 [10, 84]
000000 5a 80 22 3d 93 a1 19 bc 38 48 bb ba f1 0a df 3d
       0.039673187 -0.009376901 -0.0014288491 0.10890759
000010 0f 88 a6 bc 04 df 04 3d 32 9d 08 bd ba 7e 63 3d
       -0.02032855 0.032439247 -0.033353038 0.055540778
000020 91 7e bf 3c 7e 2f d0 3c cf 72 ad bd d2 3b 13 bd
       0.023375781 0.025413271 -0.084691636 -0.03594572
000030 51 08 26 bd f7 f1 88 3d 0f c2 8f 3d 57 0b 7f 3d
       -0.040535275 0.06686776 0.070194356 0.062266674
000040 fe d7 a6 3d f0 81 bf bd b9 4e 6b bd d3 64 5c bd
       0.08146666 -0.093509555 -0.057448123 -0.05380709
000050 7b 35 d0 bd e4 3e 29 bc 56 ae 90 bd 4d 34 8e 3d
       -0.101664506 -0.010329936 -0.07064502 0.06943569
000060 dc 89 a8 bd 43 94 bd bd b5 bd bf bd 0d 05 a4 bb
       -0.082294196 -0.09256794 -0.093623556 -0.005005485
000070 68 96 ca 3d 1c 78 4e bd 8f 07 b4 bd 59 c7 a4 3d
       0.09891969 -0.050407514 -0.08790504 0.08045835
000080 00 46 d3 bd 21 23 d2 3c 8a 48 a9 3d db d0 3d bd
       -0.10316086 0.025651516 0.08265789 -0.04634176
000090 7c 1b 3a 3d c5 b2 9e 3c dc b3 d1 bd b2 fc b1 bd
       0.045436367 0.019372353 -0.102393836 -0.08690776
0000a0 a0 f7 c7 3d cf 13 92 bd 65 b4 75 bd ad 6f 55 bd
       0.097640276 -0.071326844 -0.05998649 -0.052108455
0000b0 b2 86 1d 3d 2c 59 88 3d 59 62 99 bd 61 26 44 3d
       0.038458534 0.06657633 -0.074894615 0.047888163
0000c0 36 f9 53 3d a7 6c 9a 3c c0 e9 68 bd e9 af 33 3d
       0.051751338 0.018850638 -0.056863546 0.043868933
0000d0 43 57 c8 bc 5a db 98 3d d9 83 a2 3d 4d 53 7e 3d
       -0.024455672 0.07463713 0.07935304 0.06209116
0000e0 8e 77 6c bd bb 0a ce bc c0 d5 a4 3d d1 cd 75 3d
       -0.057731204 -0.025151601 0.08048582 0.060010735
0000f0 92 2f 37 bc c3 07 cc bd 05 01 bc bc 0d 5b 18 bd
       -0.011180775 -0.09962418 -0.022949705 -0.037196208
000100 e6 bc c5 3d e0 3c b3 bd 26 70 75 3d 5b f3 82 3d
       0.0965517 -0.08751845 0.059921406 0.063940726
000110 c8 90 a7 3d 4a d2 bf bd 70 90 d0 bd 07 be 37 bd
       0.08181912 -0.09366281 -0.10183799 -0.04485896
000120 28 61 45 3d 8e 6f c5 3d 17 78 18 bd ff 6d c1 bd
       0.04818836 0.09640418 -0.0372239 -0.09444808
000130 4e e2 b1 3d 3a a3 89 3d a3 5e f0 bc 66 45 3a 3d
       0.08685742 0.06720586 -0.029342001 0.04547634
000140 69 62 4f bd 37 73 4a bd 4b fe d5 bb 7c f2 2d bd
       -0.05063096 -0.049426284 -0.006530558 -0.04246758
000150 88 89 74 bd a9 df d5 bd 8f b4 f0 3c e1 08 9f bd
       -0.059701473 -0.104430504 0.029382972 -0.077653654
000160 19 4c 98 bd 5d 04 a3 3d a5 20 1a 3d 37 70 95 3d
       -0.074363895 0.079598166 0.03762879 0.07296794
000170 f9 6f 9d 3b 37 f9 c7 3d 2c da db 3d a4 12 7e bd
       0.004804608 0.09764331 0.10734972 -0.062029496
000180 c6 e6 ce bc bc 48 b3 3d f7 0d 21 3d 0b 0d 35 bd
       -0.025256526 0.08754107 0.03931996 -0.044201892
000190 21 ba a9 bd dd 1c c1 3d f1 8b bd bc 9d de be 3d
       -0.082874544 0.09429333 -0.023138018 0.09319804
0001a0 98 b7 85 bd 20 d7 5d 3d 67 8b 9a 3d 42 3d 5c bd
       -0.06529158 0.054160237 0.0754612 -0.053769358
0001b0 dc 8f 0c bd 47 2c bb bd 1f 1a ee 3c be fa 5b bd
       -0.034316882 -0.091393046 0.02906519 -0.053705923
0001c0 16 aa 5a bd a4 80 25 bc c9 a0 a6 3d 23 d7 1c bd
       -0.053384863 -0.010101471 0.08136136 -0.038291108
0001d0 04 a9 3e bc 23 23 9e 3d b1 5c d8 bc 0b e5 b1 bd
       -0.011636976 0.077215455 -0.026411386 -0.086862646
0001e0 83 9f bd bd fa 61 49 3c c0 44 33 3c 43 b8 6a bc
       -0.0925894 0.012291426 0.010941684 -0.014326158
0001f0 f1 5d af 3c aa 99 7d bd 03 3e d6 3a 2f 3a d0 3c
       0.0214071 -0.061914124 0.0016345385 0.02541837
000200 f4 d8 1c bd bc ef 34 3d 88 d3 a4 3d 4f 9f b0 bd
       -0.03829284 0.04417394 0.08048159 -0.08624136
000210 bc c4 99 3c 3e fc 57 bd 09 ca dc 3c 2b 9e 6b bd
       0.018770568 -0.05273079 0.026951807 -0.057523888
000220 f0 60 27 bc 21 2e a7 bd cf bc a3 3d 2e 42 c5 bd
       -0.010215983 -0.08163095 0.07994997 -0.096317634
000230 d0 fd be bd ed 11 cf 3d c5 1a cc 3d 35 c7 ca 3d
       -0.09325755 0.10110841 0.099660434 0.09901277
000240 1f 8e de 3d 1c 79 c0 bd 68 c8 a1 bd 82 cb 9b 3d
       0.10866951 -0.093981 -0.078995526 0.076071754
000250 c4 b1 96 bd 79 18 d8 bc 09 fb 6f 3d 72 5d 85 3c
       -0.07358125 -0.026378857 0.058589015 0.01627991
000260 79 89 d0 3d ef 3a aa bd 39 ae ea 3c 2a 1b 08 3d
       0.10182471 -0.08312022 0.028647529 0.03322903
000270 57 01 1c bd e7 1a a6 bd 34 3c bb bd 70 9d 8d bc
       -0.038087215 -0.081106 -0.09142342 -0.017286986
000280 b1 82 4f bd ad 43 c8 3c 73 23 18 bd 0f fb 6b bc
       -0.050661746 0.024446333 -0.037143182 -0.014403119
000290 9b b8 be 3d 79 c2 90 3c 74 62 fa bb 59 86 7a 3d
       0.093125544 0.017670857 -0.007641131 0.06116328
0002a0 24 f7 00 bd 06 bc a9 3d 14 02 7b 3c f5 e4 31 bd
       -0.03148569 0.08287816 0.01532032 -0.04343124
0002b0 58 5b c6 3d 95 16 bf 3d 49 a9 6f 3d 56 cd b0 bc
       0.09685391 0.09330479 0.058511052 -0.021582287
0002c0 68 0c cc 3d 7e 08 89 bc e8 61 bb bd 67 6a 83 3d
       0.09963304 -0.016727682 -0.091495335 0.06416779
0002d0 01 20 9c 3d 02 00 ac 3d f1 03 de bd 8d 6a b1 bd
       0.07623292 0.08398439 -0.108405955 -0.08662901
0002e0 93 15 d4 bd e7 c8 0a bd a4 1f c9 3c d2 8a c9 bd
       -0.103556775 -0.033883 0.02455122 -0.09840931
0002f0 08 81 cc 3d dd 7c 78 bc b9 76 90 3d 96 d9 b8 bc
       0.09985548 -0.0151664885 0.070538945 -0.02256469
000300 47 29 87 bd 9b b0 99 3c 12 12 3c 3b 7f 0d 12 3d
       -0.0659967 0.01876097 0.0028697294 0.035657402
000310 16 82 b6 3b bd 17 23 bc a6 5f ce 3d fd eb 87 3d
       0.0055697067 -0.00995439 0.10076837 0.06636808
000320 8c 62 53 3d a0 d4 6c bc d8 17 6a 3d b2 6f f5 3c
       0.051607653 -0.014454991 0.057151645 0.029960487
000330 25 72 98 3d 96 03 90 3d 90 22 77 3d f6 be 9f 3d
       0.07443646 0.07031934 0.060335696 0.07800095
000340 a0 91 ba 3c a3 29 aa bc d8 40 23 3d 44 17 d6 bd
       0.022774518 -0.020771807 0.03985676 -0.10453656
000350 f1 38 9b 3d 25 7c 72 3d 32 97 c0 bc bc af 0b bd
       0.0757922 0.059200425 -0.023509596 -0.03410314
000360 6a 98 5d bd f8 2a d8 bd 41 b4 c0 bd cc c2 49 3d
       -0.05410043 -0.10555071 -0.09409381 0.04925804
000370 32 41 dd bd 6a 90 09 bd e1 c6 18 3d 21 03 f6 3c
       -0.10803451 -0.03358499 0.03729904 0.030030789
000380 63 00 c4 bd 0e 07 e6 3c 82 6b 7e bd 92 27 ab 3d
       -0.09570386 0.028079536 -0.062114246 0.08357157
000390 c4 fe c3 3d 3f 19 36 3d b8 31 ed bc 4e 8c 97 bc
       0.09570077 0.04445767 -0.028954372 -0.01849952
0003a0 aa b9 dd bc 52 2c ac bd 45 59 1f 3d c6 21 8a bb
       -0.02706607 -0.08406891 0.038903493 -0.004215452
0003b0 17 ea d2 ba f2 e3 cc 3d d4 5d 27 3d 48 d8 80 3d
       -0.0016091493 0.100044146 0.040860966 0.062912524
0003c0 c3 75 ae 3d 2f f0 d7 bc 63 c3 e3 3a 24 f1 19 bd
       0.08518555 -0.026359646 0.0017376955 -0.037583485
0003d0 ad 4c d3 bd 48 37 99 3d 8c 75 a5 bd 57 14 12 3d
       -0.10317359 0.07481247 -0.08079061 0.03566393
0003e0 12 8c 51 3d 62 c7 0b bd 86 1b 21 bd cd 9e 69 3d
       0.051158972 -0.034125693 -0.03933289 0.05703621
0003f0 03 90 84 3d 5d 68 1c bb 2f c7 97 bd 69 8d e9 3c
       0.064727806 -0.0023865916 -0.07411038 0.028509812

fc3.bias f4 [10]
000000 bd 6a 73 3d ff eb 46 bd 37 30 84 bd 08 5e 4b 3d
       0.059427965 -0.048564907 -0.06454509 0.049650222
000010 63 41 61 3b 08 e5 7d 3d 28 62 de 3c 7b 3b c5 bd
       0.003437125 0.061986 0.027146414 -0.096304856
000020 ea 34 2b bd f7 d6 4f bd
       -0.04179851 -0.050742116
