iheadwater_hackweek_tutorials/chp7_intro_to_pytorch/model_stat_dict_save.pt (torch, 250887 bytes, 10 tensors)

conv1.weight f4 [6, 3, 5, 5]
000000 84 8d 9e bc 5a 02 4c bd a0 8f 17 bd b0 2b b5 3b
       -0.01935459 -0.04980693 -0.037002206 0.0055288896
000010 50 f9 8c 3d 78 89 80 3d 80 2c e7 bd b8 99 92 3d
       0.0688349 0.0627622 -0.112877846 0.07158226
000020 24 21 04 3d 22 51 e0 3d bc 17 9c 3d e1 77 d7 bd
       0.032258168 0.10952975 0.076217145 -0.10520912
000030 86 d9 e0 bd 5a 20 64 bd 80 a8 cf 3d 10 90 9d bc
       -0.10978989 -0.055694915 0.10139561 -0.019233733
000040 f4 68 4a 3d da ca 5b bd 82 0a e8 3d 64 1c 48 bd
       0.049416497 -0.05366025 0.11330129 -0.0488552
000050 1e 58 b1 3d c0 38 b3 3a 98 2a 79 bd 78 1c 73 3d
       0.08659385 0.0013673529 -0.060831636 0.05935332
000060 3d 0f 7b bd f0 19 0b 3d 78 92 08 bd c0 69 4f bc
       -0.06129383 0.033960283 -0.03334281 -0.01265949
000070 04 5a e3 bd 50 80 61 bd d4 52 80 3d 2c ef e5 bc
       -0.111011535 -0.05505401 0.06265798 -0.028068148
000080 68 8c eb 3d d0 8f bd 3d e0 2a b1 bb 22 d9 9d bd
       0.1150139 0.09255946 -0.0054067224 -0.077074304
000090 4e 02 90 3d c4 c9 12 3d f8 dd 98 bd 26 9b 99 3d
       0.070316896 0.03583695 -0.07464212 0.07500295
0000a0 ae 91 8f 3d 3c bc d1 3d 09 90 84 bd b0 b4 9b bc
       0.07010208 0.10240981 -0.06472785 -0.019007057
0000b0 80 98 12 bb 08 29 8a 3c 95 78 b3 bd 3a d0 a7 bd
       -0.002236873 0.016865268 -0.087632336 -0.08194013
0000c0 cc a5 80 3d 28 d0 dd bc f0 07 67 3d b0 b5 d7 3b
       0.06281623 -0.027076796 0.056404054 0.006582938
0000d0 b4 4b 1b 3d e0 ff cf 3c 4c f8 2b 3d 38 74 6a 3d
       0.037913993 0.025390565 0.04198484 0.05723974
0000e0 6b 02 db bd 5c 11 6e 3d c6 46 a6 bd a5 6d b2 bd
       -0.106938206 0.058122024 -0.08118968 -0.08712319
0000f0 d0 1a e6 3b 80 31 a1 bc 56 e4 8a 3d 9e f4 88 bd
       0.0070222393 -0.019676924 0.06781833 -0.06687282
000100 94 3a d2 bd ce 1a ac 3d ac 43 8c bc ea 02 85 3d
       -0.10265079 0.0840355 -0.017122112 0.064946964
000110 10 0d 18 3d 20 55 b1 bd 30 09 be 3c 98 35 e3 3c
       0.037121832 -0.086588144 0.02319774 0.027735516
000120 ca 56 9e bd b0 68 60 bd 08 45 21 3d 00 70 a9 3c
       -0.077313974 -0.054787338 0.039372474 0.020683289
000130 be 2f 49 bd 94 2c 0f bd 24 97 d8 3d 6c 04 af bc
       -0.049117796 -0.034954622 0.10575703 -0.021364413
000140 b2 53 85 3d a4 cb 4c 3d 34 dd 98 bd a2 1c c9 bd
       0.06510104 0.049998894 -0.07464066 -0.098199144
000150 3e ff e2 3d e0 92 c5 3b 54 19 a2 3d c8 06 c4 3c
       0.1108384 0.0060294718 0.07914987 0.023929015
000160 cc 1d 18 3d 8c a4 b0 3d 80 3c e0 3d e8 ec 9c bd
       0.03713779 0.08625135 0.109490395 -0.07662374
000170 90 89 6c 3c 18 7a b0 3d fc 50 ab 3d 82 e9 92 3d
       0.014437094 0.086170375 0.08365056 0.07173444
000180 a0 25 ab bd cc 4a aa bd 9c 04 8f bd e0 ab 6d 3c
       -0.08356786 -0.083150476 -0.06983301 0.01450631
000190 a8 b1 eb 3d 5e 61 95 bd c0 08 7c 3d ee e3 82 bd
       0.115084946 -0.07293962 0.061531782 -0.063911304
0001a0 3f 58 de bd 3c 0c c9 bc 22 41 88 3d 68 8b db 3d
       -0.10856675 -0.024541967 0.06653048 0.10719949
0001b0 6a dd 92 bd 10 47 cd 3c 2e 0d cc 3d c2 b4 9c 3d
       -0.07171138 0.0250583 0.09963451 0.07651664
0001c0 a6 61 93 3d 62 0d a8 3d 44 94 95 3d 98 54 f4 3c
       0.07196359 0.082056776 0.0730367 0.029825494
0001d0 2c b6 a1 bd 9d 96 c6 bd f4 b8 58 bd a8 4c 5c bc
       -0.07896075 -0.09696696 -0.05291076 -0.013446011
0001e0 dc f3 90 bd 3c 09 2d 3d 84 60 12 3d 2c 31 d6 bc
       -0.070777625 0.042245135 0.035736576 -0.026146494
0001f0 a4 c7 35 3d ec da 18 3d c2 61 90 3d fc 41 9f 3d
       0.044379845 0.037318155 0.07049896 0.077762574
000200 c6 2b 20 bd b4 0c e7 3d c0 b6 5a bc 60 fe 81 bb
       -0.039104246 0.1128172 -0.013349235 -0.0039670914
000210 16 36 df bd 3e 34 98 bd 6c 27 8a bd 52 4c 4a bd
       -0.10898988 -0.074318394 -0.067458004 -0.04938919
000220 ca 21 a8 3d 5c 8e 1a bd 14 b8 b0 bd 30 f9 35 3d
       0.0820957 -0.03773342 -0.0862886 0.044427097
000230 d8 6d 17 3d e8 2a 99 3d 13 bf 74 bd 88 17 cd 3c
       0.03696999 0.07478887 -0.059752535 0.025035635
000240 ee 2e 2c bd d4 86 d4 bc 17 75 bc bd 24 8f 57 bd
       -0.042036943 -0.025943197 -0.092020206 -0.052626744
000250 6a d9 10 bd b4 41 4a 3d c0 cf ac 3c 10 a9 e9 3c
       -0.035363592 0.049379066 0.021095157 0.028522998
000260 da 08 ec 3d 86 7b e6 3d d6 4a a1 3d 60 f9 70 3b
       0.11525126 0.11254029 0.07875602 0.0036769733
000270 c0 98 a3 bd 40 d0 b8 3d ec 8a ec bc c0 f2 18 bc
       -0.07988119 0.090240955 -0.028874837 -0.00933522
000280 c5 ba cb bd 30 d9 ba bc 48 87 98 bd 2a 4e d9 3d
       -0.09947733 -0.022808641 -0.07447678 0.10610612
000290 ba 71 cc bd 8b 55 b8 bd 30 7b 80 bb 5b bd 7f bd
       -0.09982629 -0.09000691 -0.003920935 -0.062436443
0002a0 88 3b 29 3d 74 0e 36 bd 5d 25 5e bd 10 4d d6 3b
       0.04131654 -0.044447377 -0.05423485 0.0065399483
0002b0 76 30 ab 3d f7 58 a6 bd 84 1b 5e 3d 1e ed 97 3d
       0.083588526 -0.081224374 0.05422546 0.074182734
0002c0 a2 53 e7 3d 83 85 a5 bd 48 18 e5 3c 94 dc ae bd
       0.112952486 -0.08082106 0.02796568 -0.08538166
0002d0 aa e5 c9 3d 5c 77 37 bd 2c 72 8e 3d 40 4b 61 3b
       0.09858258 -0.044791564 0.0695537 0.0034377128
0002e0 d8 57 13 bc e0 75 71 bb 90 cd a0 3c 38 f4 5e 3d
       -0.008993112 -0.003684394 0.01962927 0.054432124
0002f0 50 b5 97 3c c8 47 10 3d d5 b8 d4 bd 56 49 ac 3d
       0.018519074 0.035224706 -0.103868164 0.08412425
000300 44 2e ce 3d 5a 7a c3 3d 38 d0 ae 3d 40 a7 aa bd
       0.10067418 0.09544821 0.08535808 -0.08332682
000310 08 54 2f bd 44 83 d0 3d 7a 1e b4 bd c6 8a d6 3d
       -0.042804748 0.10181287 -0.087948754 0.10475688
000320 20 fe b9 bd 96 94 a6 bd ec 38 67 3d 04 e9 a9 bd
       -0.090816736 -0.08133809 0.05645077 -0.08296397
000330 a0 b6 d8 bc 0a 0a ac 3d b6 50 bb 3d a4 a7 df 3d
       -0.02645427 0.08400352 0.09146254 0.10920647
000340 24 f2 bf bc 07 cf b7 bd ea d7 e8 3d 0c 82 c9 bc
       -0.023430891 -0.08975034 0.11369307 -0.024598144
000350 34 98 42 bd d8 97 e6 3c cc 60 a5 bd 74 6f 9b 3d
       -0.047508433 0.028148577 -0.08075103 0.07589617
000360 20 36 94 3d 02 a5 bb bd 86 3d c2 bd 60 b8 25 bc
       0.07236886 -0.09162332 -0.09484391 -0.010114759
000370 50 a8 46 3d 60 2b 5b bb 82 d4 6f bd a0 02 2d 3b
       0.04850036 -0.0033442602 -0.058552273 0.002639927
000380 16 47 de bd 00 23 a7 bd 8a 6c 9d bd 2a c0 c2 3d
       -0.10853402 -0.081609726 -0.07686718 0.09509309
000390 fa 75 d0 3d 8c a6 20 bd 80 b3 a9 3b 9c ee 52 3d
       0.10178752 -0.03922133 0.005178869 0.051497087
0003a0 90 ad 62 3c af d6 6c bd 7c 63 88 3d bc 5f 91 3d
       0.013835326 -0.057821926 0.066596 0.07098338
0003b0 a0 49 db bb 98 e4 68 bc 08 e7 d6 3d 60 b7 ce 3d
       -0.0066921264 -0.014214657 0.104932845 0.1009357
0003c0 9d 14 86 bd 28 5f e7 3d 80 17 ea 3c 10 16 9d bd
       -0.065469004 0.112974465 0.028575659 -0.07670224
0003d0 1e 74 81 3d 4c 8d b0 bd 3c 7e da 3d 9f 07 98 bd
       0.06320976 -0.086207 0.106686085 -0.074233286
0003e0 90 c4 05 3d a0 04 10 3d 40 ff e0 3c dc 24 c4 3d
       0.03265816 0.03516066 0.027465463 0.09577343
0003f0 26 72 44 bd 02 ac 47 bd db ed cc bd 70 48 9b bb
       -0.047960423 -0.048748024 -0.10006305 -0.00473886

conv1.bias f4 [6]
000000 64 60 e1 3d 86 e6 c8 3d 30 f6 cb 3d 2e 49 c1 3d
       0.11004713 0.09809594 0.09959066 0.09437786
000010 29 7b e2 bd 40 35 1e 3d
       -0.11058647 0.038625002

conv2.weight f4 [16, 6, 5, 5]
000000 14 8a f6 3c 6b 4d 75 bd 9c 8f 07 3d 9b 78 35 bd
       0.030095138 -0.059888285 0.03309594 -0.04430447
000010 70 b9 54 3c fc 8c dd 3c c2 4a 90 3d 59 73 2f bd
       0.012983665 0.027044766 0.07045509 -0.042834613
000020 36 90 83 bd 66 b8 9a 3d ca 62 0c 3d 5c 8d 22 3d
       -0.064239904 0.075547025 0.0342739 0.039685592
000030 60 c5 f0 3c 52 c1 ec bc 1c 2e 49 3d cd fc 91 bd
       0.02939099 -0.028900776 0.04911624 -0.07128296
000040 c0 2a 3a 3c c6 2d 17 3d 98 80 64 3d 12 02 27 bd
       0.011362731 0.036908887 0.0557867 -0.04077346
000050 e2 0a 62 bd b8 b6 fa 3c 88 cc 84 bd 1a f8 8a bd
       -0.05518616 0.030604705 -0.06484324 -0.06785603
000060 f7 61 96 bd 1c 2e 22 bd b0 58 7f bc 27 0d 46 bd
       -0.07342904 -0.039594755 -0.01558511 -0.048352387
000070 a2 68 0d bd df 11 94 bd 40 8f 4d 3d 10 20 99 bc
       -0.034523614 -0.07229971 0.050185442 -0.018692046
000080 f2 02 53 bd 0c 25 ae 3c ac 0f 7a bd 48 1a 6a 3d
       -0.05151648 0.0212579 -0.061050102 0.05715397
000090 74 4e 40 3d db 53 a4 bd ec 41 83 bd 18 85 5c bd
       0.04694982 -0.08023807 -0.06409058 -0.053837866
0000a0 8b 0a 35 bd a0 08 27 3c eb 5a a5 bd c6 f0 77 bd
       -0.044199508 0.010194927 -0.08073982 -0.060532354
0000b0 7e bb 18 3d 8a 10 db bc 79 14 05 bd 34 56 8a bd
       0.03728818 -0.026741285 -0.032490227 -0.06754723
0000c0 18 8d 07 3d e0 ee bc 3b 1e 45 01 bd c7 cd 4c bd
       0.03309354 0.005765781 -0.031560056 -0.050000932
0000d0 44 40 8e 3c c0 fe b5 3c 8c 71 14 3d a8 c6 c6 3c
       0.017364629 0.0222162 0.0362411 0.024264649
0000e0 38 11 4c bc ff 71 81 bd c8 e7 54 3d 00 7a 37 ba
       -0.012455277 -0.06320571 0.051978856 -0.00069990754
0000f0 38 43 5e bd 22 35 90 3d f0 76 3a 3d 05 6c 83 bd
       -0.054263324 0.07041384 0.045523584 -0.064170875
000100 07 06 27 bd ea 9e e3 bc 9d 10 41 bd 7e 2d 1c 3d
       -0.040777232 -0.027785737 -0.047134984 0.038129322
000110 e0 95 6e bd 5e 68 9b 3d fc 3b 0a bd f4 68 45 3d
       -0.0582484 0.07588266 -0.03374861 0.048195794
000120 40 3a 36 3b 19 15 13 bd d0 54 5f 3d ca 2f 7f bd
       0.0027805716 -0.035908792 0.054524243 -0.062301435
000130 d0 f1 30 bd d0 57 20 3c 74 a6 84 3d 94 4a 0f bd
       -0.04319936 0.009786561 0.06477061 -0.034983233
000140 25 a6 4b bd 88 82 55 bd 14 72 13 bd 68 0d e7 bc
       -0.049718995 -0.052126437 -0.035997465 -0.028204635
000150 84 cb 9b bc ab 41 3e bd a8 0d d1 3c 00 d5 2d 3a
       -0.019017942 -0.046449345 0.025519207 0.0006631166
000160 b2 82 5a bd 32 fc 3e bd ac a2 8d 3c 80 e1 98 ba
       -0.053347297 -0.04662723 0.017289482 -0.0011663884
000170 70 b2 6c 3d 20 cc 4a bc c9 76 87 bd 92 5a 77 bd
       0.05778736 -0.012377769 -0.06614453 -0.06038911
000180 cc 54 c4 bc e8 23 94 bc d8 aa 18 3c 38 02 96 bc
       -0.023966216 -0.018083528 0.009318076 -0.018311605
000190 6c cc f6 3c e8 74 de bc 1c 76 75 3d c8 a1 99 3c
       0.030126773 -0.027155355 0.05992709 0.018753901
0001a0 c2 a2 cd bc 78 06 95 3d 70 c2 aa 3c b1 47 63 bd
       -0.025102023 0.072766244 0.020844668 -0.055488292
0001b0 f7 20 3a bd 70 b2 51 3d 90 be 18 3d 30 90 82 3d
       -0.045441594 0.051195562 0.03729111 0.06375158
0001c0 30 85 cd bb 80 e9 69 3d 5e 46 26 3d a4 da ce 3c
       -0.0062719807 0.05710745 0.04059445 0.02525074
0001d0 e4 ce 9a bc 5c 32 a1 3d 18 5b 87 3c 24 94 ac bc
       -0.018897481 0.078709334 0.01652293 -0.021066733
0001e0 00 28 98 ba 46 62 a4 3d fc 9f 60 3d 60 45 c6 bb
       -0.0011608601 0.08026557 0.054840073 -0.0060507506
0001f0 6c ef a3 3d f6 dc 12 3d 5a 0f 32 bd 2d 2e 98 bd
       0.080046505 0.035855256 -0.04347167 -0.07430682
000200 b0 5a 42 3d b0 d2 9c 3d f1 d9 42 bd 66 5c 09 3d
       0.047449768 0.07657373 -0.047571126 0.033535384
000210 80 cc 63 3b 58 04 8f bc b2 df b5 bc f0 14 ba 3c
       0.0034759343 -0.017458126 -0.022201393 0.022715062
000220 1c 75 93 3c b4 e1 61 3d 88 db f4 3c 20 30 18 3d
       0.018000178 0.055146888 0.029889837 0.03715527
000230 52 83 93 3d 0c 47 d0 3c 20 94 46 3c 64 83 f3 bc
       0.07202782 0.025424503 0.012120277 -0.029725738
000240 c4 45 75 3d 78 8f 45 3c 4c 91 57 3d 56 79 a1 3d
       0.059880987 0.012058131 0.0526288 0.07884471
000250 7c 98 95 bc 34 7a 6b 3d d4 d5 87 bc 28 e7 96 3d
       -0.018261187 0.05748959 -0.016581453 0.07368308
000260 ee 9d 83 3d 90 bf ef bc 40 e8 3f 3b 20 0d 12 bd
       0.06426607 -0.029266149 0.002928272 -0.03565705
000270 1a 43 07 bd dc 6c 87 bc 00 ed 11 ba 36 2a e9 bc
       -0.033022977 -0.0165314 -0.0005566627 -0.02846251
000280 9f da 9d bd d4 46 4a bd c0 a1 e4 bb 5e 86 d5 bc
       -0.07707714 -0.049383953 -0.00697729 -0.026065048
000290 a4 67 78 3d ba ec 87 3d ac 0e 55 3d 02 04 14 3d
       0.060645714 0.06636949 0.052015945 0.036136635
0002a0 92 90 84 bd 6c fb 9d 3d c9 5a 93 bd 9a e5 db bc
       -0.06472887 0.077139705 -0.0719505 -0.026842881
0002b0 c7 61 6b bd f4 86 f0 3c 26 25 8b bd 26 e0 24 bd
       -0.057466295 0.029361226 -0.06794195 -0.040252827
0002c0 30 70 54 bd dc 92 4d bd 15 1f 1c bd fe 60 a4 3d
       -0.051864803 -0.050188884 -0.03811558 0.08026312
0002d0 90 87 da bb 4c e4 cb 3c c1 fe a5 bd 2e ad 94 3d
       -0.0066689923 0.024889134 -0.08105231 0.07259594
0002e0 c8 a6 91 bc b8 76 99 bd fc 7a 66 3d 04 dc b4 bc
       -0.017779723 -0.07493347 0.05626963 -0.022077568
0002f0 42 db 97 3d 0e 29 63 bd 49 40 9b bd 3e 3f 7b bd
       0.07414867 -0.055459075 -0.07580621 -0.06133961
000300 f0 de 10 3d 38 06 16 bc 19 ea 9a bd 88 0a 78 3c
       0.03536886 -0.009156756 -0.07564182 0.01513923
000310 80 8a aa bb d4 a4 f1 3c 15 1f 2a bd 31 c0 6e bd
       -0.005204499 0.029497541 -0.04153355 -0.058288757
000320 60 f2 63 3d 6b ee 20 bd 30 41 6b 3d ec 94 87 3d
       0.05565107 -0.039289873 0.057435215 0.066202015
000330 fe e1 69 bd 5d 30 1a bd f8 09 21 3c 27 aa 9d bd
       -0.05710029 -0.03764378 0.009829037 -0.076984696
000340 98 6a cd 3c e1 58 0b bd 2c 48 14 bd 65 45 81 bd
       0.025075242 -0.03402031 -0.03620164 -0.06312064
000350 b0 74 1c 3d 78 1e 55 bd 77 a8 85 bd c4 e5 af bc
       0.03819722 -0.05203101 -0.06526273 -0.021471865
000360 85 2e 3a bd c9 91 a2 bd 6e c8 06 3d d0 7b fe bc
       -0.04545452 -0.079379626 0.03290599 -0.031064898
000370 f8 42 6a 3d 7c 6a 6b 3d 4b 4b 55 bd b4 f7 42 bd
       0.057192773 0.0574746 -0.052073758 -0.04759951
000380 e8 6b ed bc ec e5 43 3d 80 32 38 bb a4 f3 ee bc
       -0.028982118 0.047826692 -0.0028106272 -0.029168911
000390 64 2d 4f 3d c0 94 9e 3d 9c 3f 77 3d ef be 7f bd
       0.050580397 0.077432156 0.060363397 -0.062437948
0003a0 bc ec 8a bc 54 4c 80 bc 6a b4 8e 3d 3f f9 2c bd
       -0.016958587 -0.015661396 0.06968005 -0.042229887
0003b0 0c ad 3f bd c0 70 a7 3a ec 60 9b bc 38 2e fd 3c
       -0.04679589 0.0012774691 -0.018967114 0.030905828
0003c0 18 9b 22 3c 3b ad 47 bd 7c 2f 73 3d 0c 2e 50 3d
       0.009924673 -0.04874919 0.059371457 0.050825164
0003d0 6c 79 92 3c 81 5a 97 bd 8c 28 1d 3d 8c 38 5e 3d
       0.017880164 -0.07390309 0.038368747 0.054253146
0003e0 18 37 ba 3c 3e 46 01 bd e0 6f b3 3b 26 7a 00 bd
       0.022731349 -0.03156113 0.005475983 -0.03136649
0003f0 b6 6d 9d 3d 08 78 a1 3d c0 e4 1b bc 24 02 61 bd
       0.07686941 0.07884222 -0.0095149875 -0.054933682

conv2.bias f4 [16]
000000 b4 6a d3 3c fa ce 0c 3d 48 4b 73 3d 4b 05 9e bd
       0.025807716 0.034377076 0.059397966 -0.07715853
000010 7b 2e 0a bd 00 91 b1 3b 2e fe a0 3d d4 86 a1 3d
       -0.033735733 0.0054188967 0.07860981 0.078870445
000020 91 a5 62 bd 82 66 5c bd a6 9e 9e 3d b0 b6 c6 bb
       -0.055333678 -0.053808697 0.077451035 -0.0060642585
000030 c8 ba 42 bd df 7f 2b bd 38 72 42 3d e0 b1 4f 3d
       -0.04754141 -0.041869994 0.04747221 0.050706744

fc1.weight f4 [120, 400]
000000 6b 5d 2c 3d 68 56 26 bc f4 4b 76 bc d0 85 19 bb
       0.042081278 -0.010152437 -0.015032757 -0.0023425706
000010 81 e6 33 3d 92 28 36 bd 02 5d cf 3c f6 9e 0e bd
       0.043920998 -0.044472285 0.025312904 -0.034819566
000020 d8 ac af bb 83 90 2c 3d 06 33 92 bc 8a f7 a8 bc
       -0.0053611808 0.042130005 -0.017846595 -0.020625848
000030 a0 73 e8 ba 32 6b b4 3c 91 11 25 3d 25 68 43 bd
       -0.0017734654 0.022023771 0.040299956 -0.04770674
000040 01 31 21 3d ca dd 8b bc 70 bd e7 3b 90 2b e2 bc
       0.039353374 -0.01707353 0.0070721433 -0.027608663
000050 2c f7 4e 3c d8 d6 47 bd 70 38 03 bd da 04 ba bc
       0.012632173 -0.048788875 -0.032036245 -0.022707392
000060 a9 c7 00 3d e4 a1 56 3c 06 ab 10 bd 68 fd ec 3b
       0.03144041 0.013100121 -0.03531935 0.007232357
000070 bb 0e 47 3d 3d d5 45 bd 65 bf 32 3d fd aa 1f 3d
       0.048598032 -0.048299063 0.04363956 0.038981427
000080 e0 1a 34 3b 7d f3 cf bc 46 4d ba 3c f2 ed c1 3c
       0.002748184 -0.025384659 0.022741925 0.023673031
000090 1d 52 9f bc d7 f9 e7 bc 6e 52 07 bd aa a5 9b bc
       -0.019448334 -0.028317375 -0.033037595 -0.018999893
0000a0 f4 a2 2a 3c e2 bf af 3c 60 10 83 ba 31 e5 30 3d
       0.010414828 0.021453802 -0.0009999387 0.043187324
0000b0 f4 fe 6a 3c bc 24 70 3c 1d 29 cb bc 08 2b 6f bc
       0.014343012 0.014657196 -0.024799878 -0.014597662
0000c0 d1 98 08 3d 8a 85 d1 3c 90 cb c0 bb 72 70 09 bd
       0.033348862 0.025576372 -0.0058836415 -0.0335545
0000d0 00 db 3f bd e0 f2 2b 3b d0 1b 03 bd e8 01 01 bc
       -0.046839714 0.0026237294 -0.032008946 -0.00787399
0000e0 4c 70 08 bc 08 e1 3f bd db ad 0d 3d d8 da 17 bc
       -0.008327555 -0.046845466 0.03458963 -0.009268485
0000f0 0b a2 49 bd 47 ef 3a bd 1e 32 23 bd fd 9c a0 bc
       -0.0492268 -0.04563835 -0.039842717 -0.019606108
000100 80 77 4b bb ea e9 a8 3c 00 8b db ba 57 f8 43 bd
       -0.003104657 0.020619351 -0.0016749799 -0.047844257
000110 f6 6b 23 bd c7 7c d1 bc fd cc 20 3d e0 91 15 bb
       -0.03989788 -0.025572194 0.039257992 -0.0022822544
000120 b7 3e 3d bd 10 82 ab bc 00 61 15 bd b0 5b e0 3b
       -0.046202388 -0.020936042 -0.03646946 0.0068468675
000130 e8 8b 8b bb 54 54 01 bc c1 df 1e 3d 80 d0 f7 bc
       -0.0042586215 -0.007893641 0.038787607 -0.030250788
000140 00 16 ad 3b 7a b7 94 bc 18 30 0f 3c ee 73 22 bd
       0.0052821636 -0.018153895 0.008739494 -0.03966134
000150 b3 9f 9e bc 6e 89 c1 3c dd 9b 08 bd 5a 1b bb bc
       -0.01936326 0.023625102 -0.033351768 -0.02284019
000160 b0 1f d8 bb fa 13 20 bd 4e f0 03 bd da ca 84 bc
       -0.0065955743 -0.03908155 -0.032211594 -0.016210008
000170 28 4a c0 bb 74 22 30 bc 50 0a 39 3b b3 a5 3b bd
       -0.005868215 -0.010750402 0.0028234906 -0.04581232
000180 d8 86 04 bc 78 d9 33 bd 56 68 d7 3c 3b 77 3a 3d
       -0.00808879 -0.043908566 0.026294868 0.045523863
000190 c8 c3 21 bd 8d 7b 13 bd e9 96 46 3d 17 1b 1f 3d
       -0.039493352 -0.0360065 0.048483763 0.038844194
0001a0 02 67 bc 3c 86 5e 01 bd 12 46 80 3c 60 0f d0 ba
       0.022998337 -0.031584285 0.015658412 -0.0015873723
0001b0 93 31 1a 3d 2e d1 fe 3c 30 65 b9 bb 26 ac 9f 3c
       0.037644934 0.031105604 -0.0056578144 0.019491266
0001c0 57 ff 32 bd 98 ea 0c 3c 10 7d f9 bc 89 9c 22 3d
       -0.043700542 0.008600853 -0.030455142 0.039700065
0001d0 a0 b0 14 bd c0 0b 32 bd e8 5e 2e bd 08 e9 69 bc
       -0.036301255 -0.043468237 -0.04257098 -0.01427675
0001e0 30 29 32 3b 68 b3 bb bb 42 1c a8 3c d8 cd 35 bd
       0.0027185194 -0.005728174 0.020521287 -0.04438576
0001f0 57 b4 f0 bc f0 f2 e2 bb c0 9c d0 ba 08 99 31 bc
       -0.029382868 -0.006925933 -0.0015915856 -0.010839708
000200 9e 04 bc 3c da 08 d4 3c 80 2f 13 bc b0 be 1f bb
       0.02295142 0.025883127 -0.008983493 -0.0024375133
000210 d0 b6 ff bb a8 34 a0 3b 60 bb ab bc 30 78 ff bb
       -0.0078037754 0.0048890896 -0.02096337 -0.00779631
000220 4a 4b 16 bd 5f 49 2b 3d 23 01 0c 3d 06 27 0b bd
       -0.036692895 0.04181802 0.03418077 -0.033972763
000230 b0 ac 72 3b 83 c3 f0 bc 94 27 25 bc d3 a2 35 bd
       0.00370292 -0.029390102 -0.010080237 -0.044344734
000240 20 b9 59 bb 90 70 ba bc f3 09 38 bd b1 0b 49 3d
       -0.0033221915 -0.022758752 -0.044931363 0.049083415
000250 4c 0f 51 3c e7 85 0c 3d 80 b4 06 3c 00 d6 28 3b
       0.012759995 0.034307387 0.0082217455 0.002576232
000260 40 15 bb bc 9a 87 a3 3c 43 5a 03 3d 20 e9 3e bb
       -0.022837281 0.01996212 0.032068502 -0.0029130653
000270 17 0c d3 bc 97 1c 24 3d 40 b1 8f bb 70 87 06 bd
       -0.0257626 0.040066328 -0.0043851435 -0.032844007
000280 2e d4 e8 3c c9 46 49 3d dd f3 40 3d 17 5b 28 3d
       0.028421488 0.04913977 0.047107566 0.041102495
000290 5b c8 39 3d 92 c5 4a bd f2 a8 8c 3c 5b 97 31 3d
       0.04535709 -0.049504824 0.017170403 0.043357234
0002a0 82 b3 04 bd c4 2c 59 3c 7a 7e 81 bc e0 29 6d bb
       -0.032397754 0.013255302 -0.015807379 -0.003618829
0002b0 aa e3 bd 3c 60 c4 72 3b 0c 94 92 bc 08 56 1a bc
       0.023179848 0.0037043318 -0.01789286 -0.0094199255
0002c0 26 31 9b 3c 17 39 cf bc cb 1e 08 3d f5 37 3e bd
       0.018944334 -0.025295777 0.03323249 -0.046440084
0002d0 ca d8 0b bd c4 aa 62 3c 40 42 a1 3a 72 d5 e8 3c
       -0.034142293 0.013834659 0.0012303069 0.028422091
0002e0 6e 3a af 3c e0 28 20 3b 98 fe f9 3b e7 a7 15 3d
       0.021390166 0.0024438426 0.007629227 0.036537077
0002f0 4f 93 40 bd bc 2a 8c bc 9f 25 04 3d 3e 16 20 bd
       -0.047015484 -0.017110221 0.03226244 -0.03908371
000300 4a be c3 3c 53 15 08 3d 46 9e 83 3c 66 28 06 bd
       0.023894448 0.03322346 0.016066682 -0.03275337
000310 9a 71 e5 bc b4 67 3d 3c 30 c2 b6 bc c6 0b a1 3c
       -0.028008271 0.011560369 -0.022309393 0.019658934
000320 7c 32 6b 3c 80 58 14 3c e9 68 39 3d dd 82 45 bd
       0.014355298 0.009054303 0.045266066 -0.048220504
000330 02 9c 44 bd 39 74 08 3d 3a 82 89 bc 6d 54 43 bd
       -0.048000343 0.033313964 -0.01678573 -0.047687937
000340 60 d7 88 bc a1 d0 1b 3d 80 ea e6 bb d2 f7 c7 3c
       -0.016704261 0.03804076 -0.0070469975 0.024410162
000350 86 b4 ee 3c a8 20 7b bc e2 a1 d4 3c a4 d1 7c 3c
       0.029138815 -0.01532761 0.025956098 0.015430842
000360 9a e1 02 bd 34 1f 25 bc c2 71 f8 3c 1a 4e 9f 3c
       -0.03195343 -0.01007824 0.030327681 0.019446421
000370 b0 f7 e3 3b 10 09 c9 bb 92 3a 10 bd c6 11 94 bc
       0.006957017 -0.0061351135 -0.035212107 -0.018074881
000380 8f c6 04 3d 50 87 31 bb 8a 85 f5 bc 40 80 d9 3b
       0.032415923 -0.002708871 -0.029970903 0.006637603
000390 83 d1 28 bd 10 42 ca bb 00 33 06 bb 6f 9f 41 bd
       -0.04121543 -0.006172426 -0.0020477176 -0.04727119
0003a0 00 b6 09 bd 0d c8 0a bd 95 66 0e bd 69 01 27 3d
       -0.033620834 -0.03388219 -0.0347658 0.04077283
0003b0 b2 7a 9f 3c 0a da 10 bd 4d 99 ae bc eb 73 16 3d
       0.019467685 -0.03536419 -0.021313334 0.03673164
0003c0 49 cc 32 3d 18 27 a0 3b 80 eb 2e 3a 78 e6 1b bd
       0.043651853 0.004887473 0.00066726655 -0.03806159
0003d0 ce af f2 3c d8 0d 66 bc d0 74 9a 3b ec d0 26 bc
       0.029624846 -0.014041387 0.004713632 -0.010181647
0003e0 e6 b8 8d 3c d4 12 3f 3c 94 d0 3c bc 74 75 03 bc
       0.01730008 0.011662204 -0.011524338 -0.0080236085
0003f0 00 7b 1b b9 ad 48 22 bd d0 70 42 bb 28 55 19 bd
       -0.00014827773 -0.03962009 -0.0029669292 -0.037434727

fc1.bias f4 [120]
000000 2a 01 c4 bc c2 43 29 bd 18 48 e7 3b ed e5 21 3d
       -0.023926336 -0.041324385 0.007058155 0.039525915
000010 cf 78 04 3d 4a 10 a3 3c 35 6a 0f 3d b5 2a 23 bd
       0.032341775 0.019905228 0.035013396 -0.03983565
000020 b1 cb 48 3d a0 80 7c bc 70 83 3e bd ae 73 be 3c
       0.04902238 -0.015411526 -0.046512067 0.02324852
000030 f4 a1 5b 3c 88 fb 33 bc f2 11 42 bd 00 c2 0d 3a
       0.013405312 -0.010985263 -0.047380395 0.00054076314
000040 17 bc c9 bc 90 3f f9 bc b1 c6 37 3d aa 07 c7 3c
       -0.024625821 -0.030425817 0.04486722 0.024295647
000050 95 7b 2f bd 6d 8a b0 bc 9a 3b c2 bc bb 6e 38 bd
       -0.042842466 -0.021550382 -0.02371006 -0.045027476
000060 fa 2b 1b bd 69 db 4b 3d 60 51 2f 3b 29 a1 28 3d
       -0.037883736 0.049769793 0.0026751384 0.04116932
000070 88 65 0c 3c 71 d7 45 3d b7 6f f8 bc 1c 56 64 3c
       0.008569129 0.048301164 -0.030326707 0.013936546
000080 5a 11 c4 bc 42 e2 91 3c 41 c6 1e 3d 8b 06 1b 3d
       -0.023934055 0.017808083 0.03876329 0.037848037
000090 ce 58 03 bd a0 bd f4 ba 00 a1 80 3b d0 1c 01 3b
       -0.032067113 -0.0018672235 0.0039254427 0.0019701011
0000a0 47 2b a6 bc e4 b3 78 3c f6 21 21 bd c8 78 7a bc
       -0.020284308 0.015179608 -0.03933903 -0.015287586
0000b0 2d 4a d4 bc b3 b9 99 bc 57 6a eb bc 63 6f 02 3d
       -0.025914276 -0.018765306 -0.02873723 0.031844508
0000c0 58 45 30 bc f6 c4 c3 3c 00 04 90 39 b0 b4 35 3b
       -0.01075872 0.02389763 0.000274688 0.0027726106
0000d0 df 9d 3b 3d 9f 0e 02 3d 1d a2 47 3d 46 69 27 bd
       0.045804854 0.031752225 0.048738588 -0.04087188
0000e0 31 a9 4a 3d 8d 4c b0 bc c0 3e 63 ba 98 66 b8 3b
       0.04947776 -0.021520877 -0.0008668713 0.0056274645
0000f0 2f f4 45 bd 92 50 c2 3c 1d bf e5 bc 25 44 35 3d
       -0.048328575 0.02372006 -0.028045231 0.04425444
000100 ac ea 06 bc 4a cc 11 bd b9 a5 12 3d 40 bb be 3a
       -0.008234661 -0.035595216 0.035802577 0.0014551654
000110 fd a4 17 bd 2c a0 09 3c 6c 54 2d bc c7 23 48 bd
       -0.03702258 0.008400004 -0.01057921 -0.048862245
000120 c8 14 36 3c 7d 1f bd bc cc d6 17 bc 0d c5 2c 3d
       0.011113353 -0.023086304 -0.00926752 0.04218011
000130 c0 ca 31 3a e2 e1 0e bd 4d 9c 14 3d 5b 36 17 bd
       0.0006782226 -0.034883387 0.036281873 -0.03691707
000140 c6 c1 b9 3c 20 95 38 3c 61 3b 31 3d 63 f6 2d bd
       0.022675406 0.011266023 0.04326952 -0.0424713
000150 10 d4 9b bc a2 dc 87 3c d8 33 4c bc 4e b6 11 bd
       -0.019022018 0.016584698 -0.012463532 -0.03557425
000160 d0 ea ca 3b 56 6b b9 3c 60 66 d8 3a 4f 26 23 3d
       0.0061925426 0.02263419 0.0016510002 0.039831456
000170 98 94 28 bd 7f 8d 09 3d d1 9c 40 3d 8d ee ac bc
       -0.041157335 0.033582207 0.04702455 -0.021109844
000180 d8 63 ce bb 20 da cf bc 8d 27 41 bd 98 f4 96 3b
       -0.0062985234 -0.025372565 -0.04715686 0.0046067946
000190 60 3f 46 bd a5 a7 41 3d 97 ae 3b 3d 74 76 77 bc
       -0.048400283 0.04727902 0.0458208 -0.015103925
0001a0 90 f2 87 3b f3 51 d0 bc 01 c6 3a 3d 40 f6 84 3a
       0.0041487888 -0.025429701 0.045598987 0.0010144189
0001b0 54 a1 55 3c 40 9d 70 bc 00 0a 3e b9 5d 8e 1c bd
       0.013038952 -0.014685929 -0.00018123537 -0.038221706
0001c0 68 36 c1 bb aa c1 a6 3c 0a 01 ff 3c d5 0e 29 bd
       -0.0058963783 0.020356018 0.031128425 -0.04127391
0001d0 4e b8 a2 3c be a6 c8 3c e8 57 91 bb 56 76 9c 3c
       0.019863274 0.024493571 -0.004435528 0.019099396

fc2.weight f4 [84, 120]
000000 50 26 9d bd 88 10 09 bd 99 7e 00 bd 8d 14 2d bd
       -0.07673323 -0.03346303 -0.031370733 -0.042255927
000010 00 2d c9 3b c8 62 25 bd 72 58 98 bd 83 b9 63 bd
       0.0061393976 -0.04037741 -0.074387446 -0.05559684
000020 68 b5 07 3c 9c d0 87 3c 5e 2e a6 3d f2 0d 77 bd
       0.008282997 0.016578965 0.081143126 -0.060316034
000030 c4 8f 44 3d dc 69 79 3d f3 f3 1a bd 00 63 ab bc
       0.047988668 0.06089197 -0.037830304 -0.02092123
000040 b7 33 81 bd 50 9b 18 bc 00 ee 61 3b cc 1e aa bd
       -0.06308692 -0.009314373 0.0034474134 -0.08306655
000050 ca 4c a8 3d 15 97 ba bd ef 14 2f bd 10 d9 6c 3c
       0.08217771 -0.09110848 -0.042744573 0.014456049
000060 24 82 b3 3d 00 62 45 b9 14 0c 37 3d e0 d4 3d bb
       0.08765057 -0.00018823892 0.044689253 -0.0028965995
000070 64 00 85 3c 95 0e 17 bd 21 31 86 bd f0 53 6c 3d
       0.016235538 -0.03687914 -0.06552339 0.057697237
000080 0c 61 79 3d b2 6b 9b 3d d6 30 13 bd f0 c6 42 3c
       0.060883567 0.075889006 -0.035935245 0.011888251
000090 c4 52 94 3d f8 4a 78 3d a0 53 54 3d a0 f5 9b 3b
       0.07242349 0.06061837 0.051837564 0.0047595054
0000a0 b8 d4 e8 3c e2 26 a8 3d ec ef b0 3c f8 0d e2 bc
       0.028421745 0.08210541 0.021598779 -0.027594551
0000b0 20 1c bc 3b 4b b4 7e bd c1 ae 98 bd 5c b0 19 bd
       0.0057406574 -0.06218366 -0.07455207 -0.037521705
0000c0 b8 42 e9 bc b0 05 77 3d 8c 97 5a bd 9a ee 99 bd
       -0.028474197 0.06030816 -0.053367183 -0.07516213
0000d0 10 be 41 bc 60 35 26 3d 48 92 6e bd 47 da ba bd
       -0.0118251 0.040578246 -0.058244973 -0.09123664
0000e0 f4 04 7b bd c0 07 6d bc 64 3a 0a 3d f0 a6 b2 3d
       -0.06128402 -0.01446718 0.033747092 0.08723247
0000f0 ed b8 38 bd b4 13 ae 3c 80 63 30 ba e1 42 86 bd
       -0.045098234 0.02124963 -0.0006728694 -0.06555725
000100 50 66 d2 bb b1 8e 85 bd 44 2b 11 3d fe 46 b6 3d
       -0.006420888 -0.06521357 0.035441652 0.089002594
000110 0d 04 b4 bd 3e ac b9 bd 70 6e 40 3c 3c 25 87 3d
       -0.08789835 -0.09066056 0.01174508 0.06598899
000120 90 e5 89 bb 02 d0 93 bd a8 98 03 bd cf 98 a9 bd
       -0.004208274 -0.07217409 -0.032128006 -0.08281099
000130 80 3b 94 3b 4c 46 8b 3d 84 b5 8c 3d aa 8c 5f bd
       0.0045236945 0.068005174 0.06870559 -0.054577507
000140 98 7a b7 3d da b6 00 3d 34 8e c1 bc f4 4e 74 3d
       0.0895893 0.03142438 -0.023627378 0.059645608
000150 ba 72 8d bd a0 5e f8 bc 8e 3f 9f 3d 60 0c 7d 3c
       -0.06906648 -0.030318558 0.07775794 0.015444845
000160 30 63 1c bd 58 99 90 bd 8c b7 82 bd d2 a7 30 bd
       -0.03818053 -0.07060498 -0.06382665 -0.043128796
000170 56 90 2d bd 28 e6 46 bc 1c 95 13 3d 26 49 89 3d
       -0.042373978 -0.012139834 0.036030874 0.06703405
000180 00 2e 32 3b fc 43 91 3d dc f3 97 3d e4 7c 1a 3d
       0.0027188063 0.07093045 0.07419559 0.03771676
000190 68 45 7e 3d 84 b6 c2 bc fc db df 3c 3c c0 13 3d
       0.06207791 -0.02376867 0.027326576 0.036072
0001a0 c4 db c2 bc 35 c6 b0 bd a6 56 92 bd 8a bb 66 bd
       -0.023786433 -0.08631555 -0.07145433 -0.056331195
0001b0 40 f1 10 bc 91 6d 2d bd a0 51 86 3d d5 8e 54 bd
       -0.008846581 -0.04234082 0.065585375 -0.051894028
0001c0 da 56 99 3d 92 4e 80 3d a7 1b 90 bd f4 88 53 bd
       0.07487269 0.06264986 -0.07036524 -0.05164428
0001d0 34 48 c2 3c 48 09 35 3c 89 df 79 bd 40 ae d0 3a
       0.02371607 0.011049576 -0.061004195 0.0015921071
0001e0 f0 9f 88 bb 38 03 07 bc d8 9d 51 3d f0 6d d0 3c
       -0.0041694567 -0.0082405135 0.051175922 0.025443047
0001f0 30 8e bb bb 28 07 64 3d a8 fd 73 3d 3d d4 21 bd
       -0.005723737 0.055670887 0.059568077 -0.039509047
000200 f4 ac b2 bd 3e b4 7d bd 38 35 29 3d 20 92 53 3c
       -0.087243944 -0.06193947 0.04131052 0.012913257
000210 00 14 67 3d 74 ff d8 bc 34 a2 ac 3d 30 df cf bc
       0.056415558 -0.026488997 0.08429375 -0.025374979
000220 f0 e1 ef bb 9c b4 83 bd 06 9e 9d bd 84 fc b7 3c
       -0.007320635 -0.06430933 -0.07696156 0.022459276
000230 da d4 9b 3d 79 ee b6 bd 84 b1 44 3d 38 59 9e bd
       0.076089576 -0.08932204 0.048020855 -0.07731861
000240 9c a1 77 3d a9 fb 84 bd 74 38 53 3d 1f 12 5e bd
       0.060456857 -0.06493313 0.05156751 -0.0542165
000250 84 e8 24 bd 0c 1d a8 bc a3 79 09 bd c6 8c ab 3d
       -0.040260807 -0.020521663 -0.033563267 0.0837646
000260 88 54 58 3c a4 9c 9e 3c 01 dc 03 bd f2 b4 86 3d
       0.013203748 0.019361801 -0.032192234 0.06577481
000270 00 5e cf 3a 92 f2 93 bd ba ed 86 3d dc 8a 8f bd
       0.0015820861 -0.07224001 0.065883115 -0.07008907
000280 78 39 5a 3d c0 35 fb bc 78 3e 35 3d 50 75 82 3c
       0.053277463 -0.030665278 0.044249028 0.01592508
000290 a0 c2 6c 3d 60 47 a5 3d 04 29 df bc 50 0e e4 3c
       0.057802796 0.08070254 -0.027241237 0.027838856
0002a0 a8 fc 7a 3c 1b 45 a8 bd d8 41 3f 3d 18 01 9d 3c
       0.015319027 -0.08216306 0.046693653 0.01916556
0002b0 40 0e 1d 3b 30 5d 59 bc 17 77 21 bd 87 59 2f bd
       0.0023964792 -0.013266847 -0.039420214 -0.04280999
0002c0 74 2b 36 3d ba 97 b5 3d d8 ab 39 bd 30 54 ee bc
       0.044475034 0.0886683 -0.0453299 -0.029092878
0002d0 80 fd 15 bc b3 09 9f bd 70 0d c5 3b 64 d2 98 bd
       -0.009154677 -0.07765522 0.0060135648 -0.07462004
0002e0 e0 b8 91 3c d0 aa 86 3d 40 7d 84 3d 40 17 a2 bb
       0.01778835 0.06575549 0.06469202 -0.0049466193
0002f0 4c d1 b8 3d 84 b6 36 3d f0 06 2e bc ec aa 49 3d
       0.09024295 0.044607654 -0.010621771 0.04923527
000300 06 88 47 bd 90 7d 8a bb 20 69 75 3d 18 d9 92 3c
       -0.048713706 -0.004226394 0.05991471 0.017925784
000310 30 b2 c9 3c ed 52 93 bd 35 57 5c bd a1 a7 93 bd
       0.0246211 -0.07193551 -0.053794105 -0.07209707
000320 52 63 77 bd a4 30 d0 3c 80 69 2e 3a 00 6e d1 bb
       -0.060397454 0.025413819 0.0006653294 -0.006391287
000330 f7 a3 3b bd 8e 9c a0 3d 44 de ae bd e0 94 2e bb
       -0.045810666 0.078423604 -0.085384876 -0.002663903
000340 de e6 99 3d d0 54 52 3c c6 5e ac 3d 75 bc 20 bd
       0.075147375 0.012837604 0.08416514 -0.039242227
000350 e8 f5 03 3d 30 b9 09 3d 4e c3 b6 3d c0 9b a1 bb
       0.032216936 0.033623874 0.0892397 -0.004931897
000360 89 3f a9 bd 12 96 b4 bd 08 81 63 3d f0 73 4d bd
       -0.082640715 -0.08817686 0.055542976 -0.050159395
000370 1e c2 96 bd c0 10 b3 bc e0 75 b0 bb cc 5e 49 3d
       -0.07361244 -0.021858573 -0.0053851455 0.04916267
000380 90 be 9f 3d 60 2b 24 3c d0 fc b2 3b 00 a1 e4 b9
       0.07800019 0.010020107 0.0054622665 -0.00043607503
000390 e0 ca 0d 3d a8 a2 3d 3c 22 38 94 3d 90 ba b6 bc
       0.034617305 0.011574425 0.07237269 -0.022305757
0003a0 1a b5 49 bd 68 f2 9e 3c 1c af ed 3c e0 08 7a 3c
       -0.049244978 0.019402698 0.029014163 0.015260905
0003b0 8c 88 14 3d b0 95 37 bd f8 66 70 3c 4a f6 2f bd
       0.036263034 -0.044820487 0.014672987 -0.04295949
0003c0 08 8e 12 bc 1d bd 5b bd 5a 5f 04 3d ef 43 b2 bd
       -0.008944996 -0.05364715 0.032317497 -0.087043636
0003d0 58 39 a1 3c 40 f9 ba bc 20 42 48 bb 6f d4 a5 bd
       0.019680664 -0.02282393 -0.0030556992 -0.08097159
0003e0 34 27 21 bd a4 f6 49 3d ec a4 a7 bd 98 dd 77 3d
       -0.039344028 0.04930748 -0.08185753 0.060514063
0003f0 69 63 42 bd 80 71 bf bb c0 71 97 ba a0 1f c6 3b
       -0.047458086 -0.0058423877 -0.0011554286 0.0060462505

fc2.bias f4 [84]
000000 70 43 1c 3d 26 fd a1 3d 0c 77 20 3d 90 b0 db bc
       0.03815025 0.07909612 0.039176032 -0.02681759
000010 de e9 96 3d 0c 21 64 3d f0 30 80 3c 9f 92 27 bd
       0.073688254 0.05569558 0.015648335 -0.040911313
000020 ac 57 e9 3c c0 ec b6 bc 71 95 a9 bd 30 82 d3 bc
       0.028484188 -0.022329688 -0.08280457 -0.025818914
000030 10 cd 63 3d 9e b8 3b bd 44 17 85 3d 40 be a4 ba
       0.055615485 -0.04583036 0.06498578 -0.0012568906
000040 90 b6 a6 bb 78 d6 b1 bd 46 e8 12 bd ec 94 ba bc
       -0.005087681 -0.08683485 -0.035866044 -0.02277609
000050 16 6a 76 bd 18 e7 7d 3d c0 dc 0e 3b bd f9 b6 bd
       -0.060159765 0.061987966 0.0021799058 -0.089343525
000060 fa 6e 81 3d 94 21 a3 bc 60 d4 1d 3d 9f 3f 3d bd
       0.06319995 -0.019913472 0.038532615 -0.046203252
000070 bd eb b1 bd 9c 70 2f 3d b6 f3 b9 3d ae 61 85 bd
       -0.08687542 0.042832002 0.09079687 -0.065127715
000080 d0 a8 82 bd 98 38 a5 3c 79 24 03 bd 40 74 43 3c
       -0.06379855 0.020168588 -0.032017205 0.011929572
000090 5c 4a a7 3d 01 9d 03 bd f0 db 5c 3c 80 9e 06 3b
       0.0816848 -0.032132152 0.013480172 0.002054125
0000a0 28 c0 6a 3d 6c dd 11 3d b8 ba 8a bc 07 5f 97 bd
       0.05731216 0.035611555 -0.016934738 -0.07391172
0000b0 9e 78 f2 bc 98 2f 7d bd 70 49 54 3d 9c e5 28 3d
       -0.02959853 -0.061812967 0.051827848 0.041234598
0000c0 e3 93 a6 bd a8 1c 30 3d 4c 98 b0 3d 88 51 67 3c
       -0.08133676 0.04299608 0.08622798 0.01411856
0000d0 60 47 1d 3d d0 77 9e bb 92 94 86 3d 58 6d 1c bd
       0.038398147 -0.00483606 0.06571306 -0.038190216
0000e0 90 be c3 bb bc e6 ec 3c 2c 06 7b 3d 10 95 51 bc
       -0.0059736446 0.028918616 0.061285183 -0.012791887
0000f0 b4 4f b3 bd f4 90 c8 bc 9c 1c 42 bd d0 a9 f9 bc
       -0.087554365 -0.024483182 -0.047390565 -0.03047648
000100 04 a9 08 3d 54 0e fc bc c6 bf b1 bd 3f 44 93 bd
       0.03336431 -0.030768551 -0.08679156 -0.07190751
000110 31 df 6a bd de 34 a8 3d 7c 4b 7c 3d 82 2f a5 3d
       -0.05734176 0.082132086 0.061595425 0.08065702
000120 72 6d a5 bd 78 0b 09 3c 8b ff 01 bd 5c 50 27 bd
       -0.08077516 0.008364551 -0.031737845 -0.04084812
000130 2c 3f f5 3c e8 f7 cf bc 64 19 3c 3d ce 19 0f bd
       0.02993735 -0.025386766 0.045922652 -0.03493672
000140 59 90 9f bd 84 47 9e bd fd 74 89 bd 18 56 60 3d
       -0.07791204 -0.07728484 -0.06711767 0.054769605

fc3.weight f4 [10, 84]
000000 5a 80 22 3d 90 a1 19 bc 40 48 bb ba f1 0a df 3d
       0.039673187 -0.009376898 -0.00142885 0.10890759
000010 10 88 a6 bc 02 df 04 3d 32 9d 08 bd ba 7e 63 3d
       -0.020328552 0.03243924 -0.033353038 0.055540778
000020 94 7e bf 3c 7c 2f d0 3c ce 72 ad bd d2 3b 13 bd
       0.023375787 0.025413267 -0.08469163 -0.03594572
000030 52 08 26 bd f7 f1 88 3d 0f c2 8f 3d 56 0b 7f 3d
       -0.04053528 0.06686776 0.070194356 0.06226667
000040 ff d7 a6 3d f0 81 bf bd b9 4e 6b bd d3 64 5c bd
       0.08146667 -0.093509555 -0.057448123 -0.05380709
000050 7b 35 d0 bd e0 3e 29 bc 56 ae 90 bd 4d 34 8e 3d
       -0.101664506 -0.010329932 -0.07064502 0.06943569
000060 dc 89 a8 bd 42 94 bd bd b5 bd bf bd 10 05 a4 bb
       -0.082294196 -0.092567936 -0.093623556 -0.0050054863
000070 69 96 ca 3d 1c 78 4e bd 8f 07 b4 bd 59 c7 a4 3d
       0.0989197 -0.050407514 -0.08790504 0.08045835
000080 00 46 d3 bd 24 23 d2 3c 8b 48 a9 3d dc d0 3d bd
       -0.10316086 0.025651522 0.082657896 -0.046341762
000090 7e 1b 3a 3d c4 b2 9e 3c dc b3 d1 bd b2 fc b1 bd
       0.045436375 0.019372351 -0.102393836 -0.08690776
0000a0 a1 f7 c7 3d d0 13 92 bd 65 b4 75 bd ad 6f 55 bd
       0.09764028 -0.07132685 -0.05998649 -0.052108455
0000b0 b2 86 1d 3d 2d 59 88 3d 58 62 99 bd 62 26 44 3d
       0.038458534 0.06657634 -0.07489461 0.047888167
0000c0 36 f9 53 3d a4 6c 9a 3c c0 e9 68 bd ea af 33 3d
       0.051751338 0.018850632 -0.056863546 0.043868937
0000d0 44 57 c8 bc 59 db 98 3d d9 83 a2 3d 4e 53 7e 3d
       -0.024455674 0.07463712 0.07935304 0.062091164
0000e0 8e 77 6c bd bc 0a ce bc bf d5 a4 3d d2 cd 75 3d
       -0.057731204 -0.025151603 0.08048581 0.06001074
0000f0 90 2f 37 bc c3 07 cc bd 04 01 bc bc 0e 5b 18 bd
       -0.011180773 -0.09962418 -0.022949703 -0.03719621
000100 e5 bc c5 3d e0 3c b3 bd 26 70 75 3d 5b f3 82 3d
       0.096551694 -0.08751845 0.059921406 0.063940726
000110 c9 90 a7 3d 4a d2 bf bd 70 90 d0 bd 06 be 37 bd
       0.081819125 -0.09366281 -0.10183799 -0.044858955
000120 2a 61 45 3d 8d 6f c5 3d 16 78 18 bd ff 6d c1 bd
       0.048188366 0.09640417 -0.037223898 -0.09444808
000130 4d e2 b1 3d 3b a3 89 3d a4 5e f0 bc 66 45 3a 3d
       0.086857416 0.06720587 -0.029342003 0.04547634
000140 69 62 4f bd 37 73 4a bd 50 fe d5 bb 7c f2 2d bd
       -0.05063096 -0.049426284 -0.0065305606 -0.04246758
000150 88 89 74 bd a9 df d5 bd 8c b4 f0 3c e1 08 9f bd
       -0.059701473 -0.104430504 0.029382966 -0.077653654
000160 19 4c 98 bd 5d 04 a3 3d a6 20 1a 3d 37 70 95 3d
       -0.074363895 0.079598166 0.037628792 0.07296794
000170 00 70 9d 3b 37 f9 c7 3d 2d da db 3d a4 12 7e bd
       0.004804611 0.09764331 0.10734973 -0.062029496
000180 c8 e6 ce bc bb 48 b3 3d f6 0d 21 3d 0c 0d 35 bd
       -0.02525653 0.087541066 0.039319955 -0.044201896
000190 21 ba a9 bd dd 1c c1 3d f0 8b bd bc 9d de be 3d
       -0.082874544 0.09429333 -0.023138016 0.09319804
0001a0 98 b7 85 bd 22 d7 5d 3d 67 8b 9a 3d 42 3d 5c bd
       -0.06529158 0.054160245 0.0754612 -0.053769358
0001b0 dc 8f 0c bd 47 2c bb bd 1c 1a ee 3c be fa 5b bd
       -0.034316882 -0.091393046 0.029065184 -0.053705923
0001c0 16 aa 5a bd a8 80 25 bc c9 a0 a6 3d 24 d7 1c bd
       -0.053384863 -0.010101475 0.08136136 -0.03829111
0001d0 00 a9 3e bc 23 23 9e 3d b0 5c d8 bc 0c e5 b1 bd
       -0.011636972 0.077215455 -0.026411384 -0.08686265
0001e0 83 9f bd bd f8 61 49 3c c0 44 33 3c 40 b8 6a bc
       -0.0925894 0.012291424 0.010941684 -0.014326155
0001f0 f4 5d af 3c aa 99 7d bd 00 3e d6 3a 2c 3a d0 3c
       0.021407105 -0.061914124 0.0016345382 0.025418364
000200 f4 d8 1c bd be ef 34 3d 89 d3 a4 3d 4e 9f b0 bd
       -0.03829284 0.04417395 0.0804816 -0.08624135
000210 bc c4 99 3c 3e fc 57 bd 0c ca dc 3c 2b 9e 6b bd
       0.018770568 -0.05273079 0.026951812 -0.057523888
000220 f0 60 27 bc 21 2e a7 bd cf bc a3 3d 2e 42 c5 bd
       -0.010215983 -0.08163095 0.07994997 -0.096317634
000230 d0 fd be bd ed 11 cf 3d c5 1a cc 3d 35 c7 ca 3d
       -0.09325755 0.10110841 0.099660434 0.09901277
000240 1f 8e de 3d 1c 79 c0 bd 68 c8 a1 bd 81 cb 9b 3d
       0.10866951 -0.093981 -0.078995526 0.07607175
000250 c4 b1 96 bd 78 18 d8 bc 0a fb 6f 3d 74 5d 85 3c
       -0.07358125 -0.026378855 0.05858902 0.016279913
000260 79 89 d0 3d ee 3a aa bd 3c ae ea 3c 2a 1b 08 3d
       0.10182471 -0.08312021 0.028647535 0.03322903
000270 56 01 1c bd e6 1a a6 bd 34 3c bb bd 70 9d 8d bc
       -0.03808721 -0.08110599 -0.09142342 -0.017286986
000280 b1 82 4f bd ac 43 c8 3c 72 23 18 bd 10 fb 6b bc
       -0.050661746 0.024446331 -0.03714318 -0.01440312
000290 9b b8 be 3d 7c c2 90 3c 70 62 fa bb 5a 86 7a 3d
       0.093125544 0.017670862 -0.007641129 0.061163284
0002a0 24 f7 00 bd 07 bc a9 3d 10 02 7b 3c f4 e4 31 bd
       -0.03148569 0.082878165 0.015320316 -0.043431237
0002b0 59 5b c6 3d 95 16 bf 3d 4a a9 6f 3d 58 cd b0 bc
       0.09685392 0.09330479 0.058511056 -0.02158229
0002c0 69 0c cc 3d 7c 08 89 bc e8 61 bb bd 67 6a 83 3d
       0.099633045 -0.016727678 -0.091495335 0.06416779
0002d0 01 20 9c 3d 01 00 ac 3d f1 03 de bd 8d 6a b1 bd
       0.07623292 0.08398438 -0.108405955 -0.08662901
0002e0 93 15 d4 bd e6 c8 0a bd a4 1f c9 3c d2 8a c9 bd
       -0.103556775 -0.033882998 0.02455122 -0.09840931
0002f0 07 81 cc 3d e0 7c 78 bc b9 76 90 3d 98 d9 b8 bc
       0.099855475 -0.015166491 0.070538945 -0.022564694
000300 47 29 87 bd 9c b0 99 3c 20 12 3c 3b 7e 0d 12 3d
       -0.0659967 0.018760972 0.0028697327 0.0356574
000310 10 82 b6 3b c0 17 23 bc a7 5f ce 3d fd eb 87 3d
       0.005569704 -0.009954393 0.10076838 0.06636808
000320 8a 62 53 3d a0 d4 6c bc da 17 6a 3d b4 6f f5 3c
       0.051607646 -0.014454991 0.057151653 0.02996049
000330 25 72 98 3d 97 03 90 3d 92 22 77 3d f5 be 9f 3d
       0.07443646 0.07031935 0.060335703 0.07800094
000340 9c 91 ba 3c a4 29 aa bc da 40 23 3d 44 17 d6 bd
       0.02277451 -0.020771809 0.03985677 -0.10453656
000350 f1 38 9b 3d 26 7c 72 3d 34 97 c0 bc bc af 0b bd
       0.0757922 0.05920043 -0.0235096 -0.03410314
000360 6a 98 5d bd f8 2a d8 bd 41 b4 c0 bd ce c2 49 3d
       -0.05410043 -0.10555071 -0.09409381 0.049258046
000370 32 41 dd bd 6a 90 09 bd e2 c6 18 3d 24 03 f6 3c
       -0.10803451 -0.03358499 0.037299044 0.030030794
000380 64 00 c4 bd 0c 07 e6 3c 82 6b 7e bd 91 27 ab 3d
       -0.09570387 0.028079532 -0.062114246 0.08357156
000390 c3 fe c3 3d 3e 19 36 3d b8 31 ed bc 50 8c 97 bc
       0.09570076 0.044457667 -0.028954372 -0.018499523
0003a0 ac b9 dd bc 52 2c ac bd 46 59 1f 3d c0 21 8a bb
       -0.027066074 -0.08406891 0.038903497 -0.004215449
0003b0 00 ea d2 ba f1 e3 cc 3d d6 5d 27 3d 49 d8 80 3d
       -0.0016091466 0.10004414 0.040860973 0.06291253
0003c0 c3 75 ae 3d 30 f0 d7 bc 80 c3 e3 3a 24 f1 19 bd
       0.08518555 -0.026359648 0.0017376989 -0.037583485
0003d0 ad 4c d3 bd 49 37 99 3d 8c 75 a5 bd 56 14 12 3d
       -0.10317359 0.07481248 -0.08079061 0.035663925
0003e0 12 8c 51 3d 62 c7 0b bd 86 1b 21 bd ce 9e 69 3d
       0.051158972 -0.034125693 -0.03933289 0.057036214
0003f0 03 90 84 3d 60 68 1c bb 2f c7 97 bd 6c 8d e9 3c
       0.064727806 -0.0023865923 -0.07411038 0.028509818

fc3.bias f4 [10]
000000 be 6a 73 3d ff eb 46 bd 37 30 84 bd 06 5e 4b 3d
       0.05942797 -0.048564907 -0.06454509 0.049650215
000010 60 41 61 3b 0a e5 7d 3d 2c 62 de 3c 7b 3b c5 bd
       0.0034371242 0.061986007 0.027146421 -0.096304856
000020 ea 34 2b bd f7 d6 4f bd
       -0.04179851 -0.050742116
